src/model/models/202/cnn_regressor_202.pt (torch, 247385 bytes, 7 tensors)

fc1.weight f4 [128, 394]
000000 5c e4 5b 3c ab 95 35 bc ac 34 ee 3b 18 ac 8b 3c
       0.013421144 -0.011083047 0.0072694626 0.017049834
000010 c8 0f 9e bb a7 36 17 3d 8b fc 33 bd 32 59 3f bd
       -0.0048236586 0.036917355 -0.043942016 -0.046715923
000020 1c 31 dd 3c ea 9f e4 3c 1e 79 1c 3d 1c fb 28 3d
       0.027000956 0.027908284 0.038201444 0.0412551
000030 8a 3b 7b bc 8f df f2 3c 32 0d 7d bc 91 8f 1f 3d
       -0.015334019 0.029647617 -0.015445041 0.038955275
000040 db d8 96 3c 29 e9 be bb 63 81 1c bd b1 da 12 bd
       0.018413952 -0.0058261347 -0.03820933 -0.03585309
000050 d9 bc b1 3b 0e 95 74 bc 40 b5 72 3c 40 a3 bc 3b
       0.0054241237 -0.0149281155 0.014813721 0.0057567656
000060 20 fc 06 3c 9d 06 13 3d 5a 2f 25 3d 9b 85 2e 3d
       0.008238822 0.03589498 0.04032836 0.042607885
000070 67 ca be 3b 3a 12 4a 3d de 48 3b 3d 7a c1 20 3d
       0.005822468 0.04933379 0.04572379 0.039247014
000080 31 5b 34 3d 1d cd 08 3d f9 00 40 3d ea 88 e7 3c
       0.04403228 0.033398736 0.046875928 0.028263528
000090 af e0 46 3d df 2a 1a bd f6 94 35 3d ff e2 39 3d
       0.04855412 -0.03763854 0.044331513 0.045382496
0000a0 7e e4 61 bc 0c eb 21 3d fc bf b8 3c 28 2e 28 3d
       -0.013787387 0.0395308 0.022552483 0.041059643
0000b0 2f 44 0c 3b 81 b7 d5 bc a6 be 1d bc 4a c7 13 3d
       0.0021402945 -0.026088478 -0.009627974 0.03607873
0000c0 5c 0f 89 3c 14 58 65 b9 bb 3a 18 bc 5d 72 1d 3d
       0.016730957 -0.00021871954 -0.009291346 0.038439143
0000d0 c1 d8 2b bd 0a 60 52 bd d8 cf de bc a8 d8 20 3d
       -0.04195476 -0.05136112 -0.027198717 0.03926912
0000e0 23 5d 37 3c 11 95 b5 3c 8c e9 0e 3d 73 1c 24 3d
       0.011191639 0.022165807 0.034890696 0.040066194
0000f0 6d 7f 24 3d 6b 18 b7 3c 3c c2 af bc f5 41 44 3d
       0.040160585 0.02235051 -0.021454923 0.047914464
000100 1b 5f a6 3c c9 48 38 bd ef 3f 8a bc d4 c0 25 bd
       0.020309022 -0.04499129 -0.016876189 -0.0404671
000110 1b d2 f0 3c bb 14 4e bd 77 03 4c bd 49 7a f1 3c
       0.029397061 -0.05031274 -0.04980799 0.029477255
000120 ce a1 86 3c ac 58 d5 3c df 4e 17 3c 2b e9 b1 3b
       0.016434576 0.026043259 0.009235113 0.005429407
000130 15 71 1a 3d 3d 86 ba 3c d8 3d aa 3c 67 83 1d bc
       0.0377055 0.022769088 0.020781443 -0.009613848
000140 84 b1 98 3c 24 a4 29 3d 13 80 25 bd 12 1e 3f 3c
       0.018639334 0.041416302 -0.040405344 0.011664884
000150 30 eb 24 3d ae 43 06 bc 4a f6 9a bc b2 3d 63 bc
       0.040263355 -0.008194847 -0.018916268 -0.01386969
000160 2d 86 cb 3c a6 3f 51 bd 95 54 d2 bc 1b 42 38 bd
       0.024844253 -0.05108609 -0.025675097 -0.044984918
000170 e6 76 b3 bb 41 83 45 bd 09 1b 05 3d 17 bd ef bc
       -0.0054768203 -0.048220877 0.032496486 -0.02926497
000180 ce 0c af 3c d2 2c 88 3c d5 35 1a bd 20 d5 b0 3c
       0.02136841 0.016622934 -0.037648994 0.021586
000190 63 ca 51 bd c6 db 54 bd 63 11 25 bd 6c 03 41 bd
       -0.0512184 -0.051967405 -0.040299784 -0.047122404
0001a0 6f 02 26 3d 37 9d 22 3d 25 60 b3 3c 8d 8e 03 3d
       0.040529665 0.039700713 0.021896431 0.03211837
0001b0 3a c5 94 bc 6f 05 18 bd a8 aa 3b bd 8d a1 fb 3c
       -0.018160451 -0.037114557 -0.045817047 0.030716682
0001c0 7b f0 b6 bc 4d 2f 9d 3c c1 df 58 bd 07 62 dc bc
       -0.022331467 0.019187594 -0.052947763 -0.026902212
0001d0 d8 f4 e2 3b 33 85 38 3c 78 91 6c 3c 93 b7 ca bc
       0.0069261603 0.011262226 0.014438979 -0.024745738
0001e0 33 1c 3c bd c8 e9 9b ba 1f aa b1 3b f0 30 18 bd
       -0.04592533 -0.0011895234 0.0054218913 -0.037156045
0001f0 78 cc 20 3c d1 a6 76 3c 6a 5f 83 bb dd 75 e1 3c
       0.009814374 0.015054421 -0.004009177 0.027522022
000200 cd 58 b6 3c 35 96 1e bd f8 cf 93 b9 7d 6f 6e 3b
       0.02225914 -0.038717467 -0.00028192974 0.003638237
000210 20 82 2e bd 1b 2d 15 3c 03 4e 3c bc 99 c9 8d bc
       -0.042604566 0.009104992 -0.011493209 -0.017308043
000220 97 71 b4 bc 72 91 5a bd 06 78 30 bd c5 61 0e bd
       -0.02202682 -0.053361364 -0.043083213 -0.03476121
000230 f6 fb 96 3c 3e 5f 12 3d cf fd c0 ba 21 e8 14 bc
       0.018430691 0.03573536 -0.0014724078 -0.009088547
000240 ba 03 59 bd f3 22 51 bd e4 53 5c 3b 84 97 26 3b
       -0.05298207 -0.05105872 0.0033619339 0.00254199
000250 07 f4 f7 3b 91 fb 19 3d 66 08 5e 3c ca d6 1e bd
       0.007566932 0.037593428 0.013551807 -0.038779058
000260 64 4f 16 3d 33 1b 24 3c a0 fe ee bc 14 4f 07 bd
       0.036696807 0.01001625 -0.029174149 -0.0330344
000270 6c b2 63 bd da 40 34 3d b3 d4 e5 bb f6 64 96 3c
       -0.05559008 0.04400716 -0.007013881 0.018358689
000280 52 58 46 bb 26 17 2f 3d f7 2d 1e bd 53 5d 1d bd
       -0.0030265045 0.042746685 -0.038618054 -0.03841908
000290 2b b1 1d 3d 89 d7 6c bc c3 8b 19 bc 4e 76 84 3b
       0.03849904 -0.014455684 -0.009371701 0.0040424233
0002a0 8c 80 22 bd 8f 42 54 bd 09 43 16 bd df d6 0e 3d
       -0.039673373 -0.051821288 -0.036685023 0.034872886
0002b0 36 5b b5 ba f6 bb 3f bc d3 25 1e bd 63 ab 57 3b
       -0.0013836387 -0.011702528 -0.03861029 0.003290855
0002c0 c6 30 0f bd 8c 2e 2c bd 9a 23 49 bc 70 72 2f bd
       -0.034958623 -0.042036578 -0.0122765545 -0.042833745
0002d0 e1 07 f7 3c 73 28 2b 3c f0 c7 c6 3b 23 5f b2 bc
       0.030155124 0.010446656 0.006066315 -0.02177388
0002e0 33 a6 b2 bc 6c d3 ff 3c 1d 57 03 bc 00 b2 38 3d
       -0.021807766 0.031228743 -0.008016375 0.04509163
0002f0 da 16 3c 3d 0e e4 0d 3b d0 ab d9 3c 0b e9 a4 bc
       0.04592023 0.0021650824 0.026571184 -0.020130655
000300 49 e1 04 bd e3 96 e3 bc c3 37 0e 3d c0 00 20 bd
       -0.03244141 -0.02778191 0.034721147 -0.039063215
000310 74 30 7f 3c 36 3c 02 bd 4e c0 c5 bc 24 73 58 3c
       0.015575517 -0.031795703 -0.02413955 0.013211045
000320 e5 b2 bb bc 23 12 39 3d e6 ad 9e 3c 8c 67 ac 3b
       -0.022912452 0.045183312 0.01937003 0.005261367
000330 ca ef 52 bd f4 d9 3b 3c 43 67 f8 3c a3 1a 17 bb
       -0.051498212 0.011465538 0.030322677 -0.0023056648
000340 32 a6 8c 3b 80 7e 11 3d 48 6e 3b 3c ea 52 5a bd
       0.004292273 0.03552103 0.011439867 -0.05330173
000350 dd e0 a4 3c 9d a3 0e 3d 5f 22 93 bc 57 7d 20 3d
       0.020126754 0.034824003 -0.017960725 0.039182033
000360 44 12 16 bd d0 76 85 3b 6e 4e c1 3b 9b 0a 77 3c
       -0.036638513 0.0040730014 0.005899242 0.015078212
000370 77 6e 9e ba 6a 80 e9 bc 8c 67 01 bd cd b4 c8 3c
       -0.0012087364 -0.028503615 -0.03159289 0.024500275
000380 60 64 33 3d e4 fc e1 3c ce 75 2a bd e9 d2 0a bc
       0.043796897 0.027586408 -0.041616254 -0.008473136
000390 04 33 ea 3c 6f c8 40 bd 46 91 35 3d e6 6a 18 bd
       0.02858878 -0.04706615 0.044327997 -0.03721132
0003a0 7a b7 07 bc a4 2c a4 bc 3b b7 eb 3c 6f 1f 07 bd
       -0.00828349 -0.020040818 0.028773895 -0.03298896
0003b0 ab dc 84 3c ac 42 4b bc 34 2e ce 3c df 04 15 3d
       0.016218504 -0.0124060325 0.025168516 0.0363816
0003c0 43 d8 95 bc 03 e9 23 3c fc f1 b8 bc f7 9e 04 bd
       -0.018291598 0.010004285 -0.022576325 -0.032378163
0003d0 ee f2 40 3d 68 4b a1 bc 06 00 29 bb 0c d0 12 bc
       0.047106676 -0.019689277 -0.0025787367 -0.008960735
0003e0 b3 d3 40 bd 10 66 14 3d fd 30 3c bd 67 50 c2 bc
       -0.047076892 0.036230147 -0.045945156 -0.02371998
0003f0 d9 36 5a bc c6 d2 08 bd bf ef 47 3d e3 9a ea bb
       -0.013318741 -0.033404134 0.048812624 -0.007159577

fc1.bias f4 [128]
000000 c3 ac 13 3c 78 f5 ea 3c 92 36 86 3c 61 50 f3 bc
       0.009013358 0.028681502 0.016383443 -0.029701414
000010 d5 81 ae bc ce fe 84 3c f9 d3 b2 bc 0e db ab 3c
       -0.021302143 0.016234782 -0.021829592 0.020978477
000020 34 17 b2 3b 6e 99 24 bd 02 66 32 bd f3 c1 8d bb
       0.005434895 -0.040185384 -0.043554313 -0.004326099
000030 01 cd 31 3d 0a f4 ab 3c 5f 57 34 3d fd c5 08 bd
       0.043408398 0.02099039 0.044028636 -0.03339194
000040 5b 60 14 3b 00 53 04 bc b9 9a 1c 3d 44 cb d5 bc
       0.002264044 -0.008076429 0.038233493 -0.026097901
000050 c1 cc 83 bc 0a 49 af 3c 2e bb bd 3c 97 0c 2a 3d
       -0.016088845 0.021397132 0.023160543 0.041515913
000060 73 49 55 bd d8 0a fe bc 4e 29 b1 bb 60 19 f9 b9
       -0.052072 -0.03101103 -0.005406535 -0.00047511887
000070 6e e9 1f bd 52 72 27 bd 96 88 f6 bc 39 a0 10 3d
       -0.039040975 -0.04088051 -0.030094426 0.03530905
000080 cb f3 1e bd 9c 86 22 3c d7 4f f3 3c 70 ac 04 bd
       -0.038806718 0.009919789 0.029701157 -0.03239101
000090 43 b1 33 bc 49 c4 26 3d 4a 98 a8 bc 75 0d e6 3c
       -0.010967555 0.040714536 -0.02058043 0.028082589
0000a0 4e 88 4f 3d 37 4f 2e bb 24 f2 da bc 2a b3 b5 3c
       0.0506671 -0.0026597509 -0.02672679 0.022180159
0000b0 d4 58 47 3c 80 68 d9 b9 f7 34 36 3d 17 c3 3c 3d
       0.012167174 -0.00041467324 0.044484105 0.04608449
0000c0 07 16 ba 3c 03 c2 53 bd 99 5d 05 bd a9 d7 7e bc
       0.022715582 -0.051698696 -0.032559965 -0.015554347
0000d0 90 1b db 3b cd ef ad 3b d0 b7 ec 3c 24 62 d3 3c
       0.0066866353 0.0053081275 0.028896242 0.025803633
0000e0 1e 0c fb bc a6 aa 22 3c 70 47 2b 3d da 11 27 bd
       -0.030645426 0.009928381 0.041816175 -0.04078851
0000f0 3a 26 a8 3c aa 40 68 bb 51 85 51 3c 19 f4 25 bc
       0.02052604 -0.0035438933 0.012788133 -0.010128998
000100 e7 bd 94 bb 4b 2c e2 bc 73 da 5e 3c 18 14 50 bc
       -0.0045392397 -0.027609011 0.013601887 -0.012700103
000110 27 98 3e 3d 9f 90 00 bd b6 ae 15 bd 0a 8c fd bc
       0.046531823 -0.03138792 -0.03654357 -0.030950565
000120 0a 89 e3 bb 7f a6 32 3a b2 c7 81 3c 8d 32 34 3c
       -0.0069438266 0.0006814971 0.015842292 0.01099838
000130 54 51 09 bd ca bd 1c bd a6 ea 9a 3c de b4 07 bd
       -0.033524826 -0.038266934 0.018910717 -0.033131473
000140 9f e0 24 3d 8f 01 1f 3d d9 64 14 bb 0a 99 b7 bc
       0.040253278 0.038819846 -0.0022643118 -0.022411842
000150 c6 bd e0 3c d9 9e 37 bc 70 fc 4e bc fa fa a1 3c
       0.027434241 -0.011207306 -0.012633428 0.019772995
000160 a5 93 43 bd 0a 56 15 3d f1 ce 3b bd 34 c9 85 bc
       -0.047748227 0.036459006 -0.04585165 -0.016331293
000170 49 f4 0b bd 5a f6 d0 3c 0d 0e 10 bd 3f a9 06 bd
       -0.034168515 0.025508095 -0.03516965 -0.03287625
000180 60 2b b0 bc 72 6d 1c bc b0 47 b5 3c 69 cc 23 bd
       -0.021505058 -0.009547578 0.02212891 -0.039989863
000190 06 3b 2b 3d 18 2a ab 3c 4f 1d 09 3d ee e9 05 3d
       0.041804336 0.020894095 0.033475216 0.032693796
0001a0 d5 d1 36 3d 43 43 37 3d 7b 12 20 bd e5 2d 2b bd
       0.044633705 0.04474188 -0.039080124 -0.041791815
0001b0 38 df 10 bd d5 fc fe 39 4a 27 b3 3c 15 da 0a 3d
       -0.035369128 0.0004863503 0.02186932 0.033899385
0001c0 e0 cf 0a 3c f1 04 8d bb f4 3f 28 bd 89 ea 2b 3d
       0.008472413 -0.0043035676 -0.041076615 0.041971717
0001d0 a0 27 5d bd fe 4d 8e bc e5 e3 f5 bc eb db 9a 3b
       -0.053992867 -0.017371174 -0.030015895 0.0047259233
0001e0 88 28 8b 3b b1 73 0e 3d c1 0e 27 3d 0c 47 05 3d
       0.004246775 0.0347783 0.040785555 0.03253846
0001f0 0a 11 03 bd 6c 76 35 3d e8 63 09 3c 09 ae 1e 3d
       -0.03199867 0.04430239 0.008385636 0.03874019

fc2.weight f4 [64, 128]
000000 cb 11 72 bc ec 63 70 bd 86 8d 74 3d 6e 63 60 3d
       -0.01477475 -0.058689043 0.05970528 0.054782324
000010 93 ef ae 3d aa 3a a4 bd e3 83 82 bd 7f d1 5a bd
       0.08541789 -0.08019002 -0.06372812 -0.053422447
000020 a4 b6 da bc 05 69 a4 3d c8 d6 7f bd 04 98 a5 bd
       -0.026698418 0.080278434 -0.06246069 -0.08085635
000030 65 af c2 3d 26 c6 1a bd ca f7 bb 3b e5 97 79 3d
       0.0950611 -0.037786625 0.005736326 0.060935874
000040 dc 10 78 3d 2a 45 02 3d 30 ba ae bb 15 63 82 bc
       0.060562953 0.03180424 -0.005332254 -0.015916387
000050 07 d6 95 3d dc 30 d3 bc ec d1 9c bd 1f 37 ab bd
       0.07316213 -0.025780134 -0.07657227 -0.08360123
000060 7f 40 b9 3d e7 fd 3a bd e8 3d 84 bd f6 1d 97 3d
       0.09045505 -0.045652296 -0.0645712 0.073787615
000070 2f 3b b3 3d ca 1e 18 bd d1 c8 7d 3c f6 f6 61 3d
       0.08751523 -0.037138738 0.015489773 0.05516716
000080 38 60 82 bc 3b 21 14 bd b8 c6 6c bc 6e 1a 7e bd
       -0.015915021 -0.036164504 -0.014451675 -0.062036924
000090 97 64 57 bd a8 36 a2 bd 98 6f 30 bd d6 e7 40 3d
       -0.052586164 -0.07920581 -0.043075174 0.047096096
0000a0 2a 08 84 bc de 4b 06 bc 58 c5 a0 bc a2 6a 3e 3d
       -0.016117174 -0.008196799 -0.01962535 0.04648841
0000b0 6a b8 17 3d 10 42 f7 bb f5 d4 a0 3d 20 48 63 bd
       0.037041105 -0.007545717 0.07853118 -0.055488706
0000c0 26 4a c9 3b b8 92 ad bc 60 e1 df bb 59 c4 e2 3b
       0.0061428724 -0.021188125 -0.0068322867 0.006920379
0000d0 9e cc 56 3d 9c 04 c3 3d 78 e0 69 bd 67 cd fb 3c
       0.052441232 0.095223635 -0.057098836 0.030737592
0000e0 a4 06 4a 3d 1c 66 a5 3b db 69 47 bd de 0d 0c 3a
       0.04932274 0.005047573 -0.048684936 0.00053426425
0000f0 e0 9f 61 3b ac 40 09 bd 85 3c c4 bc c9 17 b4 3d
       0.0034427568 -0.03350894 -0.02395464 0.08793599
000100 ea 8c ac bd 28 91 7b bc c4 51 a2 3d 2f e3 5e bd
       -0.08425315 -0.015354432 0.07925752 -0.054415878
000110 22 b2 56 3d c3 14 64 3a d7 f8 13 bd b2 1d 7a 3d
       0.052415974 0.00087006035 -0.036125984 0.061063476
000120 1d 08 76 3c 87 8b 72 3d aa 77 03 3d 11 e2 6d 3d
       0.015016583 0.059215095 0.032096542 0.05807692
000130 30 29 57 3c 02 fc e1 bc 2a 5b 2a 3d bf da 05 bd
       0.013132378 -0.027585987 0.041590847 -0.032679316
000140 39 80 1a bd d9 ff 56 3c 0c 2d 86 3d 99 2f b2 bd
       -0.03771994 0.013122522 0.06551561 -0.08700485
000150 d0 33 19 bc 50 ca 41 3c 00 de 28 bd 6c 0e 9f bc
       -0.009350732 0.01182802 -0.04122734 -0.019416057
000160 26 43 80 bd 86 db 87 bd 9b 3b 91 bd 4c 9c a2 bc
       -0.062628075 -0.06633668 -0.07091447 -0.019849919
000170 79 56 bc 3b 50 e4 49 bd fe a4 90 bc 66 81 2e 3d
       0.005747613 -0.04929 -0.0176568 0.042603873
000180 4c f6 3f bd 69 43 29 3b 26 95 9f bc 16 03 1a 3d
       -0.046865746 0.0025827533 -0.0194803 0.0376006
000190 30 c0 d5 3c c6 bf 82 bd 63 24 23 bd de 5f 4c bd
       0.026092619 -0.06384234 -0.039829623 -0.049896114
0001a0 bc d7 28 bd 70 32 c7 bc 67 6b 7c bd cf 7e 8a 3d
       -0.041221365 -0.024316043 -0.061625864 0.06762468
0001b0 d8 db 21 bc 9b 53 63 bd 44 06 f2 bc 08 c8 74 3c
       -0.009879075 -0.055499654 -0.029544003 0.014940269
0001c0 69 3d 8a 3d 98 ec bf bc 24 f2 8e bc d7 e2 8d bd
       0.06749994 -0.023428246 -0.017449446 -0.06928032
0001d0 d2 f1 7d 3d 50 e3 11 3c 90 bb 7a 3c 9d 53 5f bd
       0.061998196 0.008904293 0.015303507 -0.0545231
0001e0 c0 a8 3d 3b 74 c5 8c bc 89 3a 9c 3d cb 14 4d 3d
       0.0028939694 -0.017183997 0.07628352 0.050068658
0001f0 18 04 87 3c 84 4c 92 bd ac f7 e2 3c fa 48 7c bd
       0.016481444 -0.071435004 0.02770599 -0.061593033
000200 9d f3 86 bc bd 95 8c 3d cd f7 94 3d 0a c9 02 3d
       -0.016473586 0.06864498 0.07273827 0.031930007
000210 aa 35 5e 3d 50 c4 81 3b b0 e7 95 3b fc 22 d0 3c
       0.054250397 0.00396017 0.0045747384 0.025407307
000220 0d c0 c2 bd 90 d8 b7 3b 7c 7f ab bc 95 03 b6 bd
       -0.09509287 0.005610533 -0.020934813 -0.08887402
000230 20 0c 92 bd 27 10 7d 3c 88 01 cb bc 87 ea 2f 3c
       -0.07131219 0.015445746 -0.024781004 0.010737068
000240 48 56 3e 3c c1 2d a0 3d 58 b2 ae bd 65 d7 44 bd
       0.011617251 0.07821227 -0.0853011 -0.04805698
000250 01 b8 dd bc c0 e6 43 3c 1f e2 58 bd 54 cd 93 bd
       -0.027065279 0.011956871 -0.05295002 -0.072168976
000260 7a c3 bd 3d 8d 5e 6c bd 29 fa 9b 3d 3c 67 94 bd
       0.092658 -0.05770736 0.07616074 -0.07246253
000270 95 94 39 bd 28 e8 c5 bc c5 25 89 3c c0 3d cd bc
       -0.045307714 -0.024158552 0.016741643 -0.025053859
000280 00 21 af bc 80 e8 8a 3a 8d 36 93 bd 51 a0 02 bd
       -0.02137804 0.0010597855 -0.07188139 -0.03189117
000290 29 be b2 3d 10 ba 21 bc e5 9a 90 bd ce 5e 01 3d
       0.087276764 -0.009871021 -0.07060794 0.031584553
0002a0 b8 8d 0a 3c c4 22 e9 3c 38 8b 0d 3d ea 93 62 3d
       0.00845664 0.02845896 0.034556597 0.055316843
0002b0 2e 77 34 3d 10 2c c7 bc 45 ed 56 bd 8e 58 ee bc
       0.04405897 -0.024313003 -0.05247237 -0.02909496
0002c0 d8 b5 9a bd 71 aa b3 3d 14 51 e2 bc a0 86 b5 3d
       -0.07554215 0.087727435 -0.027626552 0.08863568
0002d0 8c 5b a9 bc 38 e4 9a bd 14 b2 8b bd c1 2b e1 3c
       -0.020673536 -0.075630605 -0.06821075 0.027486684
0002e0 28 bb 93 bc 3f b3 80 bd 2c ce 6f 3d b9 c1 bf bd
       -0.018033579 -0.062841885 0.05854623 -0.093631215
0002f0 4a 7b 02 3d 01 cb bd bd 2e b3 9a 3d a1 36 13 bd
       0.03185586 -0.092672355 0.07553707 -0.03594077
000300 54 40 a4 3c d1 53 45 bd 8e 58 27 3d b1 b1 99 bd
       0.020050205 -0.048175637 0.040855937 -0.07504595
000310 40 d7 b2 3b 1c 50 ac bd ba 38 1c 3d e4 fb a3 3c
       0.0054577887 -0.08413717 0.038140036 0.020017572
000320 6a 6d 25 3d 60 e6 39 bc 29 b6 19 bd c4 84 4b bd
       0.04038755 -0.01134643 -0.037527237 -0.049687162
000330 c0 da a7 bd 9a c2 e0 bd be 18 87 bd c5 d9 82 bb
       -0.0819602 -0.10974617 -0.06596516 -0.0039932453
000340 06 b8 a4 bc c0 d5 18 3d 69 5f a1 bc 68 a1 07 bd
       -0.02010728 0.037313223 -0.019698815 -0.033112913
000350 f6 74 5e 3d 5d c6 16 bd 2e 71 5b bc 1e a7 77 bd
       0.05431076 -0.036810268 -0.013393683 -0.06046211
000360 2a 08 6a 3d a7 5b 01 bd 6b a6 e0 bd cc 93 11 3d
       0.057136692 -0.031581547 -0.10969242 0.03554134
000370 17 46 a1 3d 9b d2 9f bd b0 a1 86 bd 78 70 dd 3c
       0.07874697 -0.07803842 -0.06573808 0.027031168
000380 2d d3 71 bd 43 ef 7c bd 82 3f 9e bd 2a 45 23 3d
       -0.059039284 -0.061751615 -0.07726957 0.039860882
000390 fe fd 8b ba 4e 88 21 3d d2 2a 2f 3d f8 50 e5 3c
       -0.0010680554 0.03943663 0.042765446 0.02799271
0003a0 d0 de a6 bd 7a 34 14 bd f5 57 59 bd 12 a0 cc bd
       -0.08147967 -0.036182858 -0.053062398 -0.099914685
0003b0 e1 89 a0 bd 2c b4 d1 bd 28 3f 47 3c 78 38 9b bd
       -0.07838798 -0.10239443 0.012161054 -0.0757913
0003c0 72 a8 77 3d 87 9e d6 bd 67 b3 8b 3d 6c ba 84 3c
       0.060463376 -0.104794554 0.06821328 0.016202174
0003d0 f9 01 1a bd 00 5c f2 3c e4 13 a9 bc c7 10 a7 3d
       -0.037599538 0.029584885 -0.020639367 0.08157497
0003e0 b8 96 16 bc 97 53 8b 3d 86 e7 90 bd d0 9b 91 bb
       -0.009191208 0.06803053 -0.070754096 -0.004443623
0003f0 c0 e4 54 3c 46 1e 7e bc c8 f2 13 bd 10 40 81 bb
       0.012993991 -0.015510147 -0.036120206 -0.0039444044

fc2.bias f4 [64]
000000 ad a8 ba bd 54 3e fb ba 94 71 c4 3a bf bf f7 3c
       -0.091142036 -0.0019168356 0.0014987462 0.030242799
000010 34 bd 1d bd b8 8a 68 3d 38 ba 6a 3d 1c 59 5d 3d
       -0.038510516 0.056772918 0.0573065 0.05404006
000020 79 ee 50 3d d9 a8 91 bc cc 96 1d 3d 36 31 cb bd
       0.051008675 -0.017780708 0.03847389 -0.099214956
000030 90 28 7b 3b 99 a8 8f bd 51 bb 0d 3c 6e 71 8e bb
       0.0038323738 -0.07014579 0.008650617 -0.004347018
000040 7e 77 0e 3d 22 73 31 3d 71 e2 8f 3c 12 01 10 3c
       0.034781925 0.04332269 0.01756403 0.008789318
000050 4e b5 1a 3d b2 14 51 bd a1 fb a1 bd da 1c a1 bd
       0.037770562 -0.051045127 -0.079093225 -0.07866831
000060 23 09 00 bb 7d f1 f5 bc c2 ad fe bd 07 1b a8 bd
       -0.0019536696 -0.030022377 -0.124354854 -0.0820828
000070 5c bd 8c bc e5 97 a2 3d 1e e5 b7 bd 57 64 90 bd
       -0.017180137 0.07939128 -0.089792475 -0.07050388
000080 58 c5 5d bd d0 b2 b9 bd 50 e8 c7 bb 61 d3 51 bd
       -0.05414328 -0.09067309 -0.006100692 -0.051226977
000090 88 d4 d1 bc cb a2 cd bd 34 3b 88 bd a8 c6 92 3c
       -0.025614038 -0.10040816 -0.06651917 0.017916992
0000a0 46 a1 53 bb 20 52 7c bd a3 ec a0 bd 65 53 e6 bc
       -0.0032292171 -0.061601758 -0.07857635 -0.028115937
0000b0 c5 47 53 3d 8e 30 91 3d 34 c0 7a 3d d6 db 94 bd
       0.051582117 0.07089339 0.061218455 -0.07268493
0000c0 17 8c 7c 3d 06 bd 79 bc 94 09 25 3d 3a 04 2a 3d
       0.061657038 -0.015242821 0.040292338 0.041507937
0000d0 ac 46 82 3d 30 5d b4 3b c8 fc 8f bd 16 31 d4 bd
       0.06361136 0.005504273 -0.07030636 -0.10360925
0000e0 9d 85 de bd 41 0c 7a bd 2c 7d df 3c 63 52 2a 3d
       -0.108653285 -0.061046842 0.027281366 0.041582476
0000f0 03 0a 9e 3d ec c2 22 bd ce dd 68 bc 87 6b f3 bc
       0.07716753 -0.039736673 -0.014213039 -0.029714359

fc3.weight f4 [32, 64]
000000 e9 17 b9 bd c3 8f 05 be a7 36 e2 bd e8 a4 fc bd
       -0.090377636 -0.13043122 -0.1104558 -0.12336141
000010 58 02 d2 bc f1 61 d3 3d aa fa d2 bd 23 6f 26 bd
       -0.025635883 0.10321415 -0.103017166 -0.040633332
000020 7c f9 db 3d ed ef ca bd 12 da db 3d ff c5 80 bd
       0.10740945 -0.099090435 0.10734953 -0.06287765
000030 9f 54 0e bd a2 8b 05 bd 38 a4 1d 3d e2 ca c2 bc
       -0.03474867 -0.032603867 0.03848669 -0.023778383
000040 52 08 46 3d 7c 3d 0d 3d ac 38 4f bc a2 56 bf bc
       0.04834778 0.034482464 -0.012647789 -0.02335674
000050 9b f5 af bd aa 98 59 3d 1f 44 f3 bd 45 87 81 bc
       -0.085917674 0.053124107 -0.118782274 -0.015811572
000060 5b b2 51 bd c8 70 cc bc 69 0b e9 bd 8f cf 0a 3d
       -0.051195484 -0.024956122 -0.113791294 0.03388935
000070 18 c2 61 bd 50 6e dd 3c 37 f9 34 bd 28 18 29 be
       -0.055116743 0.02703014 -0.044182982 -0.16513121
000080 95 79 9b 3d 82 b0 7b 3d 0a 73 02 3c ee 93 cc 3d
       0.07591549 0.061447628 0.007961998 0.09989153
000090 75 29 97 bd 0f d0 cf 3c 32 1f 14 bc a4 d6 84 bd
       -0.07380954 0.025367765 -0.009040641 -0.06486252
0000a0 81 74 a3 3c 67 8b 85 bd 2c e6 25 bd 4c 6b a6 3c
       0.019953014 -0.065207295 -0.040502712 0.020314835
0000b0 ab cc 86 3d 90 0b 2d 3d 38 66 e8 bd 88 15 28 bd
       0.06582006 0.042247355 -0.11347622 -0.04103616
0000c0 c4 58 7f 3d 27 80 f5 bb 0a 7c 16 3d 64 db 6e 3c
       0.062340513 -0.0074920836 0.036739387 0.014578674
0000d0 ca a8 88 3d 3b 58 b7 bd a1 2b aa bd 57 1f ec 3d
       0.06672819 -0.089523755 -0.08309103 0.11529415
0000e0 fc 19 97 3d ca 3e 4f 3d 22 2b 12 3d ac 2c 80 bd
       0.07378003 0.05059699 0.035685666 -0.062585205
0000f0 7d 89 ee bc 49 68 ba bd 22 43 08 3d 2c c2 d3 bd
       -0.029118294 -0.09101922 0.033267148 -0.1033977
000100 c8 04 0e bd 28 2d eb bc e2 fc b9 3d 6b d9 d4 3d
       -0.03467253 -0.028708056 0.09081437 0.10393032
000110 af c7 07 3d 34 1f 72 3c e2 61 ed bc 9c 42 eb 3d
       0.033149417 0.014777947 -0.028977338 0.11487314
000120 97 29 fd bd a2 09 99 3d a8 cc eb 3d 53 8a 8f bd
       -0.12361448 0.074725404 0.115136445 -0.07008805
000130 e8 51 05 be bf 97 a4 3d 20 76 fb 3d b2 06 a8 3d
       -0.13019526 0.08036756 0.1227839 0.08204402
000140 5e c9 34 bd 10 b3 f9 3c ff a6 c9 bd bf f6 c0 3d
       -0.04413735 0.030480891 -0.09846305 0.09422063
000150 cc fd e9 3d 27 7e b8 bd 21 e9 05 be c8 e3 d4 bd
       0.11425361 -0.09008437 -0.13077213 -0.10395008
000160 ea 61 ba 3c e9 a1 85 3d a3 d1 93 bd e1 8f 05 3d
       0.022751767 0.065250225 -0.072177194 0.032607917
000170 ec b4 7a 3d a9 02 68 3d a7 6a b2 bd 05 ce 6e 3d
       0.061207697 0.056643162 -0.087117486 0.058301944
000180 2c cd e5 3d 01 71 13 3c 5b 58 c6 3d 4d 16 a3 3b
       0.11220774 0.00899911 0.09684821 0.0049770237
000190 3f 56 8a bd 94 e5 76 3d 64 c2 6b bd 79 d4 31 bc
       -0.067547314 0.060277537 -0.057558432 -0.01085388
0001a0 79 87 ed 3d 59 1e b3 bd 8a d2 d7 bb 80 a7 b3 bc
       0.11598105 -0.08746023 -0.0065863775 -0.021930456
0001b0 af a0 ee 3d 78 8a 83 3d fa db 72 bc 97 ee 92 bb
       0.11651742 0.06422895 -0.014822954 -0.0044840085
0001c0 2c 4c 0b 3d 67 81 f9 bd 50 11 96 3d 35 f1 52 3d
       0.03400819 -0.12182885 0.07327521 0.051499564
0001d0 a7 30 81 3d b4 4b 32 3d e4 52 b3 bc 68 fc 66 bd
       0.06308108 0.043529227 -0.021890111 -0.056393057
0001e0 22 51 1c 3d cd 7f 9c 3d d2 55 23 3d ae 17 ea bc
       0.03816331 0.076415636 0.039876767 -0.028575744
0001f0 3c 6c 93 3d 45 43 55 bd 5f 4b 1f 3c 75 58 1e 3d
       0.071983784 -0.052066106 0.00972256 0.038658578
000200 5f a2 8c 3d 5e 3f af 3d a1 a8 b5 3d 01 61 f6 bd
       0.06866907 0.08557008 0.08870054 -0.12030221
000210 2a e4 05 3b 59 74 02 be 5b ec 9f bd d9 37 b4 3d
       0.0020430186 -0.12739696 -0.07808753 0.087997146
000220 61 c9 75 3d 1c 56 77 bd 42 3f f7 bc f1 04 f5 bd
       0.060006503 -0.060384855 -0.03018153 -0.11963833
000230 11 9b dc 3d da d8 a5 3c b8 d8 c3 3d 38 b5 e1 3d
       0.10771764 0.020245004 0.0956282 0.11020893
000240 cc 62 f0 bd b8 fb 45 bd 42 af d1 bd c0 c1 82 bc
       -0.11737594 -0.04833576 -0.10238506 -0.015961528
000250 19 93 b7 3d f2 1d ed bc f1 80 0a bd 1e 97 ae 3d
       0.089636035 -0.028944943 -0.033814374 0.08524917
000260 40 58 14 be d6 77 98 bd db 02 16 3b 7b 88 cb 3d
       -0.1448679 -0.07444732 0.0022889886 0.09938141
000270 03 1b 35 3c f7 f1 b1 3c 78 c4 a2 bc 59 57 46 3b
       0.011053803 0.021721823 -0.019869074 0.0030264466
000280 cc 55 2f 3d 67 50 e9 3d 21 9d cf 3d 01 a1 91 3d
       0.04280643 0.11392289 0.10137392 0.07110787
000290 d5 9c 94 bd 90 60 8c bd 31 be 6d 3d 53 3a 46 bd
       -0.07256476 -0.06854355 0.05804271 -0.048395466
0002a0 a3 c4 c9 bd a3 6e 24 bd a7 49 bb 3c 40 7d 89 bd
       -0.098519586 -0.040144574 0.022862269 -0.06713343
0002b0 10 d4 e5 bd 83 0c b1 3d 08 2e 95 bc 93 34 63 bd
       -0.11222088 0.086449645 -0.018210426 -0.05547006
0002c0 0d 4b cd bd a6 4b 85 3c 79 39 6f bd 0c 70 58 bd
       -0.100240804 0.016271424 -0.05840442 -0.05284123
0002d0 fe ab a1 bb 79 cc 37 3d c3 b8 63 bd cb d1 8a bd
       -0.004933833 0.044872735 -0.055596124 -0.06778296
0002e0 67 d8 34 bd 4b b4 b4 3b 4e 7e 04 bd e9 f6 cc 3d
       -0.04415169 0.0055146567 -0.032347016 0.10008032
0002f0 a1 7b 8d 3d 0e 4b 8b bc fc f1 d6 3d a1 ce ed 3d
       0.06908346 -0.017003562 0.104953736 0.11611677
000300 e8 e7 09 3c 95 6f c7 3d 83 92 67 bc ca 32 35 3c
       0.008417107 0.097380795 -0.014134052 0.011059472
000310 95 08 0a bd 8d 04 1a bd 61 64 87 3d 91 02 c2 bc
       -0.03369959 -0.037601996 0.06610943 -0.023682864
000320 25 d6 97 bb 8b d3 b5 3d 65 e6 a3 3c 56 83 a6 3d
       -0.0046336823 0.08878239 0.020007322 0.08130519
000330 45 f9 aa bd cf 2e 66 bd c6 c8 34 3c f5 40 0d bd
       -0.08348326 -0.056196984 0.011034196 -0.034485776
000340 58 41 10 3d 19 bb ae 3d 3d 83 74 bd 96 c6 ce 3d
       0.035218567 0.0853178 -0.05969547 0.10096471
000350 21 c2 8f 3d c1 47 25 3c df f0 a1 3d 5e 67 d0 bd
       0.07019449 0.010087908 0.07907271 -0.10175966
000360 98 22 24 3e 91 e9 a1 3d e1 4e 3a 3d a2 6d 98 bc
       0.16028821 0.079058774 0.04548538 -0.018606964
000370 39 bf 53 bd 24 d0 a1 3d 17 97 1f 3d a9 86 09 3e
       -0.051696036 0.07901028 0.03896245 0.13430275
000380 d5 b4 9e 3d 23 47 e4 3d 0c 94 5f bd 49 d1 92 bd
       0.07749335 0.11146381 -0.054584548 -0.07168824
000390 57 60 d1 3c c8 a2 18 bd e9 f9 e5 bd ea 5c 16 bd
       0.025558634 -0.037264615 -0.11229307 -0.036709704
0003a0 cc 97 3a 3d 04 69 1b 3d 85 43 b8 3d 01 65 20 3d
       0.04555492 0.037941948 0.08997253 0.039158825
0003b0 8d b1 3e 3d e5 9f d7 3d c4 38 29 bd 0d b5 42 3c
       0.046556044 0.10528544 -0.0413139 0.011883986
0003c0 18 57 cd bd bf f0 6a bd 9a ea 11 3d 24 4c 3d 3d
       -0.100263774 -0.0573585 0.035624124 0.04621519
0003d0 d2 5a 92 bd ae c8 46 3d ec e2 b7 3d 7b 84 d2 3d
       -0.07146229 0.048531227 0.08978829 0.10279175
0003e0 2f 93 0b be 50 0b 4c bd 56 b1 0b 3e c9 89 2e bd
       -0.13630365 -0.049815476 0.13641867 -0.04261187
0003f0 75 48 4e 3d ba ad 8b bd 62 6d a0 bd 35 7c 66 3d
       0.05036207 -0.06820245 -0.07833363 0.056270797

fc3.bias f4 [32]
000000 53 07 f0 3d 88 2c c1 3c 3e d2 19 be 7f c3 90 3d
       0.11720147 0.023580804 -0.15021607 0.07068538
000010 ce bb 02 be 51 f7 66 3d e4 6d fa bb a5 74 26 bd
       -0.12766954 0.056388203 -0.0076424945 -0.040638585
000020 ec 16 c5 bd 3d 6b 4e bd 5a 33 08 be e3 a6 75 3a
       -0.096235126 -0.05039524 -0.13300839 0.00093708764
000030 3c af eb bd 52 56 f6 bc 40 7e 54 bd 14 cc b2 bd
       -0.11508033 -0.030070458 -0.051878214 -0.08730331
000040 35 aa c7 3d 1e 8f e1 bc b3 df 8e 3d 5d f2 8f bd
       0.09749261 -0.027534064 0.06976261 -0.07028649
000050 f9 56 fe 3d 28 2c 94 bd 9a b3 25 bd 28 a4 a2 bd
       0.124189325 -0.07234985 -0.040454485 -0.079414666
000060 12 75 e0 bd a8 58 ce bd 04 c3 2e bd 33 a6 7d 3d
       -0.109598294 -0.100755036 -0.04266645 0.061926078
000070 a0 73 0b 3e ed ea d8 bc 2f 00 b6 3d 24 e3 c5 3d
       0.13618326 -0.026479209 0.08886754 0.09662464

fc4.weight f4 [1, 32]
000000 d4 e7 09 3e 61 19 9b 3d 62 c4 d4 3c 78 23 f0 bd
       0.13467342 0.075732 0.025972549 -0.11725515
000010 d6 03 cc 3d 49 ad ca bd fa 06 93 3c b9 a0 88 3d
       0.09961669 -0.09896333 0.017947663 0.066712804
000020 b1 f3 0c 3e 14 5b be 3d 3a 2c 89 3c db c2 b4 bc
       0.13764836 0.092947155 0.016744722 -0.02206557
000030 23 d0 05 3e 5c 94 0b be a6 02 96 bd 5a c4 28 3e
       0.13067679 -0.13630813 -0.07324724 0.16481152
000040 65 aa 15 be 95 3e 84 3d 0f d3 0d be b8 0c 56 bd
       -0.14615782 0.06457249 -0.13850044 -0.052258223
000050 25 c3 f1 3d d5 eb 1c bd 97 02 ab bd c0 56 9f 3d
       0.11804799 -0.038310844 -0.08350103 0.07780218
000060 d2 cc 03 3e 88 b8 f8 bd 53 f5 b0 bc 97 db 0b 3e
       0.12871101 -0.121445715 -0.021601355 0.13657986
000070 20 a9 91 3d d6 a2 d2 3d 5a 06 0c 3e 25 e9 d8 3d
       0.07112336 0.10284965 0.13674298 0.10591344
