src/model/models/201/cnn_regressor_201.pt (torch, 247385 bytes, 7 tensors)

fc1.weight f4 [128, 394]
-0.019506212 0.03321303 -0.02412427 -0.0012689531 -0.04086255 -0.026795242 0.00893287 -0.014036879
-0.012453474 0.041320015 0.04041883 -0.010478202 0.029916827 0.027605046 0.045896243 -0.0044351853
0.005829707 0.014442537 0.027250845 -0.016690712 0.036313232 0.023403142 -0.041666813 0.03546231
0.046862844 -0.02203919 -0.036293633 -0.034603998 0.0028400011 -0.04998749 -0.03792697 -0.007307239
0.010831118 -0.01185672 0.049091104 -0.008750103 -0.020298619 0.0054547936 -0.0062942393 0.017296907
-0.04521405 -0.021129474 0.01154197 0.016267758 -0.022868514 0.0025727004 -0.014522318 -0.013368841
0.009684768 0.018639792 0.0031001829 -0.029251967 0.023979876 -0.0484041 0.044984143 0.017263528
0.037063044 0.04872818 0.014188994 0.024627995 0.015160609 0.036268767 0.038374666 -0.022807239
-0.040767252 -0.049873378 -0.0040106624 0.012926947 -0.010507252 0.032507244 -0.050160304 -0.0438806
0.028522354 0.014965307 -0.0185159 -0.028233241 -0.0070463456 -0.034277044 -0.040246572 0.042441543
0.02034771 0.024558287 0.034530047 -0.01804259 0.0098321475 0.03851291 0.0030651353 -0.018704519
-0.031129425 -0.015556373 -0.03953694 -0.018318914 -0.04054308 -0.03937406 0.031383533 0.024168406
-0.044130977 0.041075226 -0.029033558 0.027777363 -0.04672537 0.012359951 -0.04056313 0.04970223
0.020595651 0.029071894 -0.0040621683 0.030578274 0.029003825 -0.0055186786 -0.005044829 0.046985764
-0.029913137 -0.010998238 0.02470659 -0.05006215 0.042641837 0.020003308 -0.008143164 0.04760195
0.017940264 0.0264964 0.01775084 -0.0059749335 -0.041765667 0.044211205 0.0020906068 -0.009297486
-0.03291431 -0.03194572 -0.03299988 0.015776683 0.0068952814 0.041882623 0.005626552 0.01086707
-0.017038036 0.006633017 0.006656032 0.036102917 -0.0400792 -0.0070813224 -0.028161503 0.039486688
0.017652046 -0.0037836917 -0.007842377 0.017916571 -0.04646569 -0.04717396 0.022871587 0.04628301
-0.040110417 0.0060405657 -0.0308959 -0.004967153 -0.037463367 -0.046449993 -0.020977039 -0.003572151
-0.009861112 0.03652009 0.04200123 0.03961963 0.02806643 -0.033746906 0.031755563 -0.04415154
-0.007606603 0.0029746257 0.0062533095 -0.013076611 0.021688197 -0.0066835023 -0.045441307 0.027154233
0.049691413 0.044646125 -0.047449116 -0.010641478 -0.041210514 -0.018773627 -0.017421022 -0.037796617
-0.043539703 -0.04977031 0.03600115 -0.02700645 -0.016584769 -0.009131242 -0.019515749 0.009155817
0.04156133 -0.029302323 0.010724109 0.0040558204 -0.034691133 0.04284991 0.031890716 0.029655818
-0.025662685 0.0023029186 0.01801053 0.01834995 -0.025679477 0.0480485 0.010510843 0.020706262
-0.03637559 -0.03048435 0.04991593 0.011002328 0.013799127 0.048417445 0.050270554 0.03259701
-0.012703195 -0.03898979 -0.046322685 -0.021301555 0.027069349 -0.0038798973 -0.012854472 -0.0061753504
0.000374116 -0.00788087 -0.014945727 -0.013601609 -0.0327295 -0.021677444 0.0063941367 0.0021819584
0.03528359 -0.008233704 -0.040962465 0.020210456 0.037405085 0.000103812665 -0.024951782 -0.049406715
-0.021578033 0.011747364 -0.015616525 -0.012154885 0.04779197 0.037482243 -0.004857555 0.016166884
-0.041977 -0.019931559 -0.015342794 -0.03886837 0.026502077 -0.048789654 -0.039716594 0.046966847
00000000: 7ecb 9fbc 630a 083d 43a0 c5bc 0053 a6ba
00000010: 7d5f 27bd b281 dbbc 2c5b 123c f0fa 65bc
00000020: a809 4cbc 2d3f 293d 378e 253d c4ac 2bbc
00000030: 2214 f53c fa23 e23c b3fd 3b3d 0855 91bb
00000040: 2007 bf3b 64a0 6c3c 2a3d df3c f6ba 88bc
00000050: 2fbd 143d f2b7 bf3c d2aa 2abd ed40 113d
00000060: 41f3 3f3d 888b b4bc a2a8 14bd ecbc 0dbd
00000070: 501f 3a3b afbf 4cbd 4f59 1bbd 9071 efbb
00000080: 0075 313c b042 42bc c113 493d 985c 0fbc
00000090: 4a49 a6bc 20be b23b e83f cebb 3eb2 8d3c
000000a0: 5e32 39bd b817 adbc 881a 3d3c f643 853c
000000b0: c056 bbbc c09a 283b 04ef 6dbc fc08 5bbc
000000c0: dcac 1e3c 7ab2 983c 702c 4b3b d2a1 efbc
000000d0: 7271 c43c 6143 46bd 4b41 383d 3e6c 8d3c
000000e0: 6bcf 173d 3397 473d f478 683c a6c0 c93c
000000f0: 3464 783c 8f8e 143d c12e 1d3d 3fd6 babc
00000100: 90fb 26bd 0748 4cbd e06b 83bb 8ccb 533c
00000110: 9c26 2cbc 5126 053d e474 4dbd 25bc 33bd
00000120: b6a7 e93c 0c31 753c a8ae 97bc 6649 e7bc
00000130: 08e5 e6bb 1666 0cbd 97d9 24bd 2fd7 2d3d
00000140: 3eb0 a63c 762e c93c 616f 0d3d 0ece 93bc
00000150: 0417 213c b7bf 1d3d 70e0 483b 383a 99bc
00000160: 2303 ffbc 28e0 7ebc 7df1 21bd 8c11 96bc
00000170: 8010 26bd b246 21bd 058c 003d d2fc c53c
00000180: afc2 34bd 7f3e 283d c9d7 edbc 5a8d e33c
00000190: 1a63 3fbd 6481 4a3c 8625 26bd 9194 4b3d
000001a0: 36b8 a83c 2e28 ee3c f01b 85bb 4a7f fa3c
000001b0: 6e99 ed3c 08d6 b4bb 184f a5bb 2574 403d
000001c0: 650c f5bc f431 34bc 7a65 ca3c f80d 4dbd
000001d0: 35a9 2e3d fadd a33c e86a 05bc 43fa 423d
000001e0: 76f7 923c fa0e d93c 366a 913c 60c9 c3bb
000001f0: 7a12 2bbd cf16 353d 9002 093b 7c54 18bc
00000200: 28d1 06bd 84d9 02bd e22a 07bd 1a3e 813c
00000210: d0f1 e13b 1d8d 2b3d f05e b83b cc0b 323c
00000220: 5a93 8bbc c859 d93b d81a da3b a7e0 133d
00000230: 162a 24bd 700a e8bb f4b2 e6bc cbbc 213d
00000240: 069b 903c d0f7 77bb 507d 00bc c6c5 923c
00000250: cf52 3ebd 7b39 41bd 325d bb3c 4193 3d3d
00000260: d24a 24bd f0ef c53b 6619 fdbc 80c3 a2bb
00000270: 3073 19bd 5942 3ebd 0ad8 abbc c01a 6abb
00000280: 8090 21bc 1796 153d 7b09 2c3d 3148 223d
00000290: 92eb e53c 323a 0abd 1f12 023d 3fd8 34bd
000002a0: d040 f9bb f0f1 423b 90e8 cc3b 483f 56bc
000002b0: 72ab b13c 4801 dbbb aa20 3abd 8e72 de3c
000002c0: 3989 4b3d dbde 363d 015a 42bd 9859 2ebc
000002d0: 5bcc 28bd 26cb 99bc 88b6 8ebc a0d0 1abd
000002e0: b056 32bd f4db 4bbd f175 133d a13c ddbc
000002f0: c8dc 87bc 349b 15bc 7edf 9fbc 4802 163c
00000300: 373c 2a3d 6d0b f0bc 2cb4 2f3c b0e6 843b
00000310: 4a18 0ebd 6383 2f3d d79f 023d c2f0 f23c
00000320: 8d3a d2bc 90ec 163b d28a 933c a252 963c
00000330: c45d d2bc 81ce 443d ac35 2c3c 2ea0 a93c
00000340: 92fe 14bd 51ba f9bc a574 4c3d 1c43 343c
00000350: bc15 623c 5f51 463d 7fe8 4d3d 7184 053d
00000360: 1021 50bc c2b3 1fbd dbbc 3dbd 9980 aebc
00000370: 8ac0 dd3c e045 7ebb 909b 52bc 985a cabb
00000380: 0025 c439 c41e 01bc ecde 74bc 48d9 5ebc
00000390: 5e0f 06bd e594 b1bc e885 d13b 30ff 0e3b
000003a0: 8785 103d a8e6 06bc 42c8 27bd 6690 a53c
000003b0: 1336 193d 00b6 d938 ae67 ccbc b25e 4abd
000003c0: 6ac4 b0bc 0478 403c 74dc 7fbc 4825 47bc
000003d0: 83c1 433d fb86 193d 202c 9fbb 6a70 843c
000003e0: 13f0 2bbd 8247 a3bc 5860 7bbc 7134 1fbd
000003f0: e21a d93c a9d7 47bd dead 22bd 4f60 403d

fc1.bias f4 [128]
0.023395222 0.002473209 -0.026736218 -0.019301599 0.050277386 -0.04160356 -0.026548749 -0.04817846
0.03625373 0.012190979 0.041215625 -0.017505854 -0.014468029 0.006471548 0.012725631 -0.0005858429
0.020648975 -0.011446615 0.044081297 0.01643869 0.04102313 -0.011899482 0.02469614 -0.040081788
0.008244136 0.049881045 0.021225903 -0.001478266 -0.046050042 0.014772874 0.04426456 -0.04900259
-0.0027159438 0.014006432 0.03412578 0.002834953 0.042748548 -0.03090372 -0.049014658 -0.043963958
0.0076880194 -0.04532128 0.041296203 -0.044214673 -0.042391073 -0.036405414 -0.037525255 -0.03611598
-0.010952349 -0.015807088 -0.028931037 0.0060078874 -0.00434752 -0.02008061 0.032277443 0.028881859
0.01773777 -0.046096567 -0.031557318 0.028275205 -0.018290848 0.0017182417 -0.00819844 -0.048831817
-0.0050599575 0.008661568 -0.00089337415 -0.016688988 0.017255668 -0.048607774 -0.015084557 0.0083453385
-0.0021746196 0.03835054 -0.04298521 0.0016981489 0.0075652786 0.019837998 -0.004239805 0.012343834
0.031279795 0.032832906 0.005628559 -0.011328898 -0.042275883 0.049694773 -0.0008060521 -0.020565055
0.009406086 -0.05497083 0.042220905 -0.028415347 -0.04682886 -0.0137417745 -0.05287978 0.031298723
0.012881008 -0.040827442 -0.0267081 -0.048000388 -0.03181931 -0.03422711 0.017428372 -0.023218205
-0.00588234 -0.047314182 -0.030714234 -0.042990208 0.018897679 0.037028905 0.013890112 -0.021288339
0.009956246 -0.023702139 0.002948665 -0.023997061 0.0068103196 -0.01879571 0.004599343 0.04723292
-0.010612042 0.0070252856 0.018993927 0.006688941 -0.0038516335 0.0063655856 0.0063554524 0.043453295
00000000: 56a7 bf3c 9015 223b ea05 dbbc 631e 9ebc
00000010: a9ef 4d3d 7f68 2abd c37c d9bc c756 45bd
00000020: cb7e 143d acbc 473c b7d1 283d 7068 8fbc
00000030: 500b 6dbc 480f d43b 2a7f 503c 4093 19ba
00000040: 0a28 a93c 958a 3bbc 978e 343d 6eaa 863c
00000050: df07 283d 0cf6 42bc 8f4f ca3c cd2c 24bd
00000060: 6a12 073c 1150 4c3d f2e1 ad3c 60c2 c1ba
00000070: f89e 3cbd ed09 723c c14e 353d f1b6 48bd
00000080: fafd 31bb 3c7b 653c 79c7 0b3d 9eca 393b
00000090: 1a19 2f3d cc29 fdbc 98c3 48bd 8d13 34bd
000000a0: c8eb fb3b cea2 39bd 3526 293d 721a 35bd
000000b0: 43a2 2dbd d81d 15bd 15b4 19bd 5aee 13bd
000000c0: 7b71 33bc de7d 81bc c800 edbc d0dd c43b
000000d0: a475 8ebb 1780 a4bc 5a35 043d a699 ec3c
000000e0: cd4e 913c c1cf 3cbd 3f42 01bd 67a1 e73c
000000f0: b0d6 95bc a036 e13a c052 06bc df03 48bd
00000100: 00ce a5bb 40e9 0d3c 5331 6aba 58b7 88bc
00000110: c25b 8d3c f218 47bd 3825 77bc e3ba 083c
00000120: 1084 0ebb 7515 1d3d 4211 30bd 6c94 de3a
00000130: 28e6 f73b 4c83 a23c 10ee 8abb cb3d 4a3c
00000140: 3e1f 003d cc7b 063d c66f b83b d89c 39bc
00000150: 7a29 2dbd bf8c 4b3d 3e4d 53ba 0c78 a8bc
00000160: fc1b 1a3c 1829 61bd d4ef 2c3d 4dc7 e8bc
00000170: 9ecf 3fbd 2e25 61bc 7898 58bd 1733 003d
00000180: dd0a 533c ad3a 27bd f2ca dabc 0e9c 44bd
00000190: f754 02bd ba31 0cbd f2c5 8e3c 1b34 bebc
000001a0: a5c0 c0bb 84cc 41bd 6b9c fbbc 8016 30bd
000001b0: 4ecf 9a3c 9fab 173d 5a93 633c e264 aebc
000001c0: 861f 233c fd2a c2bc 643e 413b 7c95 c4bc
000001d0: 1a29 df3b 76f9 99bc 16b6 963b 4e77 413d
000001e0: 21de 2dbc 5e34 e63b 2799 9b3c e72e db3b
000001f0: b06b 7cbb 6796 d03b 6641 d03b 15fc 313d

fc2.weight f4 [64, 128]
-0.0051465333 0.069938146 0.034576327 -0.043650933 -0.062354535 0.093581155 0.01166453 -0.0466636
0.010629132 0.012729158 0.04176978 -0.036723793 -0.04379244 -0.044625167 0.003473059 -0.0016026422
-0.082746565 -0.03884987 0.06658731 -0.0059823766 -0.001462079 -0.003422767 0.06620461 0.0648247
-0.059101492 0.00936117 0.038651552 0.06874514 -0.013047494 0.069786 -0.005083911 0.0395061
-0.06293273 -0.04316936 0.081783585 -0.07554736 0.086993486 0.0726126 0.04932774 0.030045206
-0.039321817 0.008216158 -0.047913443 0.07662914 0.025984976 0.009681103 -0.004319531 -0.06093663
0.06031218 -0.0849122 0.045293808 0.01793658 0.029798254 -0.06683685 -0.051246278 -0.01615578
-0.034327634 0.059180837 0.06076593 -0.00015573889 0.045522615 0.036953323 0.07219017 0.06389384
-0.042895954 0.02056817 -0.047704257 -0.036712326 0.0017989296 0.012529396 0.0008457807 0.06054196
-0.0074427724 0.03263288 0.012756189 0.009759776 -0.0010563652 0.07379068 0.042203702 -0.016787296
-0.03412537 0.07365337 -0.051137835 0.043876994 0.02963441 0.050095968 -0.02737957 -0.017438099
-0.05361181 -0.035911307 -0.043604948 -0.0243892 0.05166202 0.07377346 0.0034614939 -0.058328908
0.06866829 -0.04028008 -0.081949405 -0.013996081 0.0811373 -0.020059392 0.057017557 -0.03813968
-0.027512569 0.027165921 0.011792064 0.0062468336 -0.04462221 -0.036996238 -0.07140303 0.08358367
-0.034545388 -0.00041040778 -0.07255189 0.045842353 0.022158442 0.08788554 -0.018047106 -0.027197735
0.047231946 0.03233108 -0.0149046695 -0.0011172707 -0.0037847534 0.07763321 0.06305711 -0.0064738095
0.050154857 0.03321579 -0.013922155 0.051537357 0.03651253 0.06766266 -0.01757732 -0.025267977
0.08227844 -0.06844181 0.021842964 -0.0015225634 0.047449775 0.048045315 0.0679279 0.07525895
-0.079483904 -0.07758393 0.08321791 -0.07205813 -0.0823087 0.037927113 -0.050196122 -0.072682254
0.044468567 -0.017110638 0.008685283 -0.04382619 -0.06322205 0.04545052 0.066558234 -0.007355228
0.03390678 0.051202483 0.0711065 0.027181901 0.041220605 0.06637046 0.03647954 0.088545084
0.0047604516 -0.07668853 0.0874986 0.038847156 -0.06403541 -0.0025822618 0.023910064 -0.042363305
-0.042312235 0.04405778 -0.061535843 0.05416725 -0.08264107 -0.012020168 0.034253694 -0.05514365
0.049004406 -0.048906475 0.065125994 0.02341036 0.016280493 0.011672482 0.027446635 -0.08987251
0.024739124 0.013051681 0.07416343 0.02726818 -0.014681064 0.032566186 -0.06581109 -0.062094394
0.03076531 0.04258608 -0.03624779 0.07726568 0.060722034 -0.08119676 -0.0064226016 0.061858274
-0.060033496 0.008392353 -0.082819685 -0.09678512 -0.040332355 -0.012784369 0.016996825 -0.08830506
-0.072390765 0.05802789 0.030419882 -0.056184392 0.0037318394 0.02728448 -0.065374024 0.0019220561
0.039220132 -0.009793907 0.070714585 -0.03492751 -0.03153663 -0.047014892 5.4061413e-05 -0.011571847
0.013745424 0.054094672 0.06943487 0.06115245 -0.04511131 -0.055337355 -0.04988171 -0.032389183
0.0045979638 -0.024282128 -0.08647373 -0.069467604 0.021187428 -0.06518951 0.042251628 0.031374432
0.06491932 0.058517896 -0.057833146 0.0036332044 0.08239163 0.047414653 -0.059911437 -0.005408168
00000000: 40a4 a8bb bb3b 8f3d e89f 0d3d 52cb 32bd
00000010: 7867 7fbd 7aa7 bf3d 961c 3f3c 5522 3fbd
00000020: d025 2e3c f58d 503c ca16 2b3d b06b 16bd
00000030: b45f 33bd e1c8 36bd 439c 633b c00f d2ba
00000040: 0877 a9bd 0b21 1fbd ed5e 883d d007 c4bb
00000050: 3ba3 bfba 8050 60bb 4896 873d d0c2 843d
00000060: 6814 72bd 985f 193c 1751 1e3d 41ca 8c3d
00000070: 28c5 55bc f6eb 8e3d f096 a6bb 26d1 213d
00000080: e0e2 80bd 5bd2 30bd 277e a73d 93b8 9abd
00000090: a429 b23d eab5 943d e20b 4a3d 5d21 f63c
000000a0: ea0f 21bd 109d 063c e340 44bd bdef 9c3d
000000b0: 72de d43c 7d9d 1e3c da8a 8dbb b098 79bd
000000c0: e809 773d 73e6 adbd 0086 393d bcef 923c
000000d0: 781b f43c c2e1 88bd 9ee7 51bd 2059 84bc
000000e0: 229b 0cbd 9b67 723d b2e5 783d d74d 23b9
000000f0: ec75 3a3d 5e5c 173d 71d8 933d c6da 823d
00000100: abb3 2fbd 947e a83c 8a65 43bd aa5f 16bd
00000110: 10ca eb3a 1948 4d3c 62b7 5d3a d9fa 773d
00000120: 80e2 f3bb 0eaa 053d 56ff 503c 78e7 1f3c
00000130: bc75 8aba 911f 973d cadd 2c3d 8385 89bc
00000140: 0bc7 0bbd 94d7 963d e875 51bd 5db8 333d
00000150: ddc3 f23c 6e31 4d3d 1f4b e0bc 58da 8ebc
00000160: 0f98 5bbd bc17 13bd 1a9b 32bd dccb c7bc
00000170: 8e9b 533d 8a16 973d 3bda 623b 4bea 6ebd
00000180: f6a1 8c3d bafc 24bd 17d5 a7bd d24f 65bc
00000190: 502b a63d 9853 a4bc 3e8b 693d 5a38 1cbd
000001a0: 0a62 e1bc 118b de3c 8033 413c 3db2 cc3b
000001b0: c7c5 36bd 5e89 17bd c03b 92bd ea2d ab3d
000001c0: 777f 0dbd 002c d7b9 1696 94bd 31c5 3b3d
000001d0: 9f85 b53c 56fd b33d 86d7 93bc c9cd debc
000001e0: 4976 413d 986d 043d b732 74bc 6271 92ba
000001f0: a009 78bb 29fe 9e3d 1624 813d 4022 d4bb
00000200: 2e6f 4d3d 480d 083d c019 64bc d618 533d
00000210: 2a8e 153d b892 8a3d 50fe 8fbc cafe cebc
00000220: 9981 a83d 382b 8cbd 04f0 b23c c090 c7ba
00000230: b25a 423d 2acb 443d c81d 8b3d 5d21 9a3d
00000240: 75c8 a2bd 53e4 9ebd 276e aa3d 3693 93bd
00000250: 7791 a8bd 7659 1b3d 739a 4dbd 6fda 94bd
00000260: ac24 363d 9c2b 8cbc b84c 0e3c 1783 33bd
00000270: 907a 81bd 532a 3a3d af4f 883d 2004 f1bb
00000280: d6e1 0a3d b2b9 513d 49a0 913d 94ac de3c
00000290: f0d6 283d 3ced 873d 926b 153d 2057 b53d
000002a0: 90fd 9b3b e00e 9dbd 7732 b33d 321e 1f3d
000002b0: ff24 83bd 2a3b 29bb 0adf c33c 2585 2dbd
000002c0: 984f 2dbd ee75 343d 020d 7cbd 7ade 5d3d
000002d0: b93f a9bd 3df0 44bc 9a4d 0c3d 4fde 61bd
000002e0: d8b8 483d 2852 48bd c760 853d 15c7 bf3c
000002f0: ab5e 853c f03d 3f3c c4d7 e03c 140f b8bd
00000300: b4a9 ca3c b8d6 553c ffe2 973d 8561 df3c
00000310: d888 70bc 1f64 053d f7c7 86bd b156 7ebd
00000320: 8807 fc3c be6e 2e3d 9078 14bd 783d 9e3d
00000330: abb7 783d 7d4a a6bd b074 d2bb 1a5f 7d3d
00000340: afe5 75bd 1480 093c 5e9d a9bd 4737 c6bd
00000350: 8a33 25bd 8875 51bc ed3c 8b3c 49d9 b4bd
00000360: 9c41 94bd a7ae 6d3d 1e33 f93c 9b21 66bd
00000370: e091 743b b483 df3c d1e2 85bd 80ed fb3a
00000380: 4aa5 203d a076 20bc cfd2 903d 2610 0fbd
00000390: 8e2c 01bd b092 40bd 00c0 6238 d897 3dbc
000003a0: 7d34 613c 6092 5d3d de33 8e3d fe7a 7a3d
000003b0: a3c6 38bd 6ca9 62bd c450 4cbd 85aa 04bd
000003c0: 84aa 963b 50eb c6bc 2419 b1bd 0845 8ebd
000003d0: 4291 ad3c 1482 85bd 0b10 2d3d 7a82 003d
000003e0: 6cf4 843d 76b0 6f3d 73e2 6cbd 0e1b 6e3b
000003f0: f1bc a83d de35 423d b265 75bd 0037 b1bb

fc2.bias f4 [64]
-0.018269978 0.34273407 -0.08290503 0.17120354 -0.002839937 0.27754793 -0.08668817 -0.03131413
-0.03240541 0.43484935 -0.09825214 -0.0074784183 -0.0058838557 0.29942837 -0.13118374 -0.00545153
0.040369842 -0.02059038 -0.012935708 -0.003913896 0.36561975 0.033953663 0.35083368 -0.0016683296
-0.01749813 -0.0025430142 -0.02341547 0.2949698 -0.019812562 0.17498977 -0.101638734 -0.021117505
-0.011764608 -0.063342996 -0.047652934 -0.091064654 -0.09426523 -0.096782684 -0.011311257 -0.07924086
-0.009186381 -0.0045157005 -0.01035505 -0.09154975 -0.012165594 -0.11235057 0.44825888 -0.104526326
0.40517068 0.3571492 0.14129622 -0.1054231 0.3387678 -0.12980473 -0.066422574 -0.07937823
-0.015956556 -0.011955004 -0.012762687 -0.051853295 0.17009953 -0.05212474 -0.06269196 -0.009202346
00000000: ecaa 95bc d77a af3e 1dca a9bd fb4f 2f3e
00000010: 3d1e 3abb c31a 8e3e 9189 b1bd 3f43 00bd
00000020: 89bb 04bd 93a4 de3e 6b38 c9bd 850d f5bb
00000030: 5ccd c0bb ad4e 993e 0855 06be c0a2 b2bb
00000040: d95a 253d 28ad a8bc 4bf0 53bc 2440 80bb
00000050: 8332 bb3e ff12 0b3d 79a0 b33e daab daba
00000060: 3d58 8fbc b3a8 26bb cdd1 bfbc 4806 973e
00000070: f44d a2bc 8530 333e f827 d0bd 9efe acbc
00000080: 58c0 40bc f9b9 81bd b92f 43bd 1b80 babd
00000090: 210e c1bd 0036 c6bd da52 39bc 0849 a2bd
000000a0: 7982 16bc 71f8 93bb 3aa8 29bc 6f7e bbbd
000000b0: 3352 47bc 0e18 e6bd 3082 e53e e611 d6bd
000000c0: 8872 cf3e 43dc b63e f5af 103e 11e8 d7bd
000000d0: f972 ad3e 88eb 04be 8f08 88bd 0e91 a2bd
000000e0: 53b7 82bc ecde 43bc 971a 51bc 1f64 54bd
000000f0: 922e 2e3e c080 55bd a464 80bd 70c5 16bc

fc3.weight f4 [32, 64]
-0.067206256 -0.042014137 0.10818838 0.08843581 0.076018386 0.007225548 0.055619914 0.056462996
0.027207375 -0.1232513 0.002459361 0.12972277 -0.12260704 -0.029902942 0.023534961 -0.018701203
0.08071666 -0.11365753 -0.07564747 0.04213622 0.01044315 0.09331297 0.011485724 -0.1293405
0.020871233 -0.007965228 0.03491427 -0.07366573 -0.014388686 -0.059816137 -0.1158521 0.08664046
0.0827144 0.03152071 0.02424577 0.051091693 0.035908863 -0.024240935 -0.022559695 0.08113399
-0.017982038 -0.088857785 -0.005632993 -0.1041307 -0.019448508 0.017282428 0.015132746 0.12136316
0.025768742 -0.09942448 -0.041520815 0.03878191 0.05540775 0.03183012 -0.042503554 0.09274217
0.069219545 -0.0408001 0.08092819 -0.06015559 0.075670816 -0.007174893 0.085294366 -0.017429428
-0.10032157 -0.029260691 0.039314836 -0.10320352 0.10578467 -0.06418786 0.03415723 0.020332966
-0.057537943 0.028620826 0.048124246 -0.1215752 0.023191843 -0.13637407 0.057641443 -0.09239638
0.020962987 -0.10999898 -0.10057407 -0.009156827 -0.018408468 0.112620875 0.015841164 -0.08848332
-0.046773568 -0.031423654 0.085096225 -0.041626748 -0.062891945 0.06622842 0.024438826 -0.018495386
-0.084884964 -0.11174244 -0.039493263 -0.09181864 -0.11452517 0.02810688 0.04940612 0.040850453
-0.06070336 0.033292286 -0.05775535 0.021039631 0.051121674 -0.102985136 -0.058055654 -0.10594127
0.07778492 0.0122214835 0.0945662 -0.05950374 -0.0044244803 -0.030746846 -0.11714968 -0.0024963075
0.0314284 -0.074003294 -0.11663172 0.097531244 -0.081832975 -0.085464396 -0.056723647 0.044846196
0.11335498 0.0138449315 0.08699062 -0.06660315 0.107978255 0.03048844 -0.097989246 0.08167785
0.08911295 0.10120131 0.027585573 -0.017185787 -0.10303214 0.04513508 0.0705064 0.10609725
0.061069988 0.028678127 -0.053867493 -0.109946765 0.07697543 -0.019131603 0.054528423 -0.014675004
0.058931407 0.10609934 0.041868676 -0.012163158 -0.051105946 0.07562006 0.06771242 0.102018565
-0.11099094 0.07111253 -0.06942208 -0.0064612576 0.095619395 0.07049606 0.082024895 -0.02603166
0.08235591 -0.0063086464 -0.05451756 -0.018909577 -0.107847586 -0.0029045795 0.11540441 -0.029793926
0.108638965 0.04779492 0.004072083 -0.074456364 0.108707204 -0.08799519 -0.09249112 0.060444552
-0.036733415 -0.019909684 0.04970192 0.005521855 0.043667845 0.027191076 0.09564879 -0.02634711
0.056856513 0.0026504698 0.07551665 0.119788244 -0.06881301 -0.027994443 -0.112374805 0.04835001
0.018460723 0.06355083 0.045091446 0.013494662 0.016485168 0.097975984 -0.048903286 0.014267151
0.06805333 0.020100472 0.020871084 0.09242038 0.067079805 0.11921845 -0.079758234 -0.10395593
-0.09751988 0.046310015 0.09205965 -0.116442986 0.013670451 -0.01762123 0.060993955 0.017545113
0.043530945 -0.059654653 -0.02834686 -0.09491566 -0.058799617 0.10027326 0.082411855 0.068828814
-0.01787738 -0.0053149317 -0.027092637 0.12428234 -0.10700775 0.0046630427 -0.019816319 -0.033381116
0.027751753 0.04800768 -0.011670384 -0.09625845 -0.09431736 0.04546136 0.11834044 0.08958074
0.10394363 -0.020987974 0.025167078 0.08576408 0.049738914 -0.05688553 -0.053950567 0.04894909
00000000: 6fa3 89bd 0417 2cbd df91 dd3d d51d b53d
00000010: 87af 9b3d 4ac4 ec3b b5d1 633d be45 673d
00000020: 00e2 de3c 2d6b fcbd 3b2d 213b 0cd6 043e
00000030: 6619 fbbd 04f7 f4bc 64cc c03c 4433 99bc
00000040: c74e a53d 47c5 e8bd 10ed 9abd 0797 2c3d
00000050: bf19 2b3c df1a bf3d 9e2e 3c3c d671 04be
00000060: 26fa aa3c 9680 02bc 4402 0f3d 0fde 96bd
00000070: 86be 6bbc c401 75bd de43 edbd 8e70 b13d
00000080: 2b66 a93d dc1b 013d 119f c63c 8645 513d
00000090: 2c15 133d ed94 c6bc 1ccf b8bc 9429 a63d
000000a0: 114f 93bc 12fb b5bd f894 b8bb 7a42 d5bd
000000b0: 7a52 9fbc e193 8d3c 56ef 773c 408d f83d
000000c0: f818 d33c 109f cbbd bb11 2abd c8d9 1e3d
000000d0: 3df3 623d 4d60 023d 3518 2ebd 9bef bd3d
000000e0: fac2 8d3d 011e 27bd aebd a53d b565 76bd
000000f0: 4df9 9a3d 5d1b ebbb d0ae ae3d 29c8 8ebc
00000100: 6575 cdbd 1eb4 efbc 9808 213d 5e5c d3bd
00000110: a2a5 d83d ed74 83bd 74e8 0b3d 5291 a63c
00000120: e8ac 6bbd 3976 ea3c ee1d 453d 6bfc f8bd
00000130: d2fc bd3c a5a5 0bbe 6f19 6c3d 503a bdbd
00000140: 92ba ab3c 2547 e1bd c7f9 cdbd 8406 16bc
00000150: 5bcd 96bc c6a5 e63d 54c5 813c be36 b5bd
00000160: a495 3fbd 17b6 00bd ee46 ae3d cf80 2abd
00000170: 7ecd 80bd c4a2 873d ef33 c83c a383 97bc
00000180: 2bd8 adbd 38d9 e4bd b0c3 21bd 690b bcbd
00000190: 2c8c eabd 6640 e63c 125e 4a3d ce52 273d
000001a0: 16a4 78bd 7e5d 083d e090 6cbd 4e5b ac3c
000001b0: f664 513d dfe9 d2bd c4cb 6dbd bdf7 d8bd
000001c0: b34d 9f3d 9e3c 483c edab c13d 32ba 73bd
000001d0: 3bfb 90bb cfe0 fbbc 2cec efbd 1799 23bb
000001e0: 11bb 003d 0a8f 97bd 9cdc eebd 76be c73d
000001f0: 0c98 a7bd f507 afbd 0e57 68bd a5b0 373d
00000200: a826 e83d dad5 623c 2328 b23d 3b67 88bd
00000210: b423 dd3d e5c2 f93c 96ae c8bd b746 a73d
00000220: da80 b63d a242 cf3d 24fb e13c 35c9 8cbc
00000230: 8402 d3bd 90df 383d a965 903d 8449 d93d
00000240: 8624 7a3d 64ee ea3c 29a4 5cbd c52b e1bd
00000250: 4ba5 9d3d e1b9 9cbc 3259 5f3d 6e6f 70bc
00000260: 0f62 713d 9c4a d93d 7d7e 2b3d fb47 47bc
00000270: 7854 51bd b1de 9a3d cfac 8a3d 1cef d03d
00000280: 384f e3bd 72a3 913d 2a2d 8ebd f5b8 d3bb
00000290: 1ad4 c33d 3d60 903d abfc a73d 5940 d5bc
000002a0: 37aa a83d c3b8 cebb ce4d 5fbd 42e8 9abc
000002b0: 32df dcbd c25a 3ebb 2659 ec3d 6412 f4bc
000002c0: 1b7e de3d 9bc4 433d 1c6f 853b 947c 98bd
000002d0: e2a1 de3d d236 b4bd fc6b bdbd b594 773d
000002e0: c775 16bd a219 a3bc 3e94 4b3d adf0 b43b
000002f0: 0edd 323d d2bf de3c 83e3 c33d e5d5 d7bc
00000300: 60e2 683d 81b3 2d3b 79a8 9a3d 8a53 f53d
00000310: d6ed 8cbd 9a54 e5bc c324 e6bd a90a 463d
00000320: f13a 973c f026 823d cfb1 383d b718 5d3c
00000330: e70b 873c a2a7 c83d d04e 48bd c5c0 693c
00000340: 8b5f 8b3d bfa9 a43c d6f9 aa3c e546 bd3d
00000350: 2361 893d cd28 f43d 4958 a3bd d9e6 d4bd
00000360: 81b8 c7bd 92af 3d3d c589 bc3d a979 eebd
00000370: 07fa 5f3c 665a 90bc ccd4 793d c5ba 8f3c
00000380: 814d 323d 7058 74bd ad37 e8bc 2463 c2bd
00000390: ded7 70bd 115c cd3d 8cc7 a83d 1ff6 8c3d
000003a0: 9573 92bc e128 aebb 61f1 ddbc bd87 fe3d
000003b0: e126 dbbd 70cc 983b d555 a2bc a3ba 08bd
000003c0: a557 e33c b3a3 443d 2335 3fbc 2623 c5bd
000003d0: 7629 c1bd b135 3a3d 795c f23d 1b76 b73d
000003e0: 66e0 d43d f9ee abbc 302b ce3c 14a5 af3d
000003f0: 08bb 4b3d cd00 69bd 45fb 5cbd d77e 483d

fc3.bias f4 [32]
-0.07411262 -0.035369724 0.24364398 -0.052965976 -0.01618497 0.31653488 -0.1286674 -0.11941081
0.24213123 0.36938757 -0.029658472 0.21256201 -0.12263563 -0.08181466 0.35913578 -0.10084024
0.2671649 0.21581827 -0.04433374 -0.066406704 0.364255 -0.0696527 0.43657902 -0.026756618
0.2812475 0.28867176 -0.11851854 -0.16793852 -0.1312621 -0.16389003 -0.029219601 0.08224256
00000000: 5bc8 97bd d8df 10bd cf7d 793e daf2 58bd
00000010: 5896 84bc dc10 a23e 63c1 03be a88d f4bd
00000020: 40f1 773e 5e20 bd3e 53f6 f2bc dba9 593e
00000030: 6428 fbbd 728e a7bd a5e0 b73e 5485 cebd
00000040: d6c9 883e 77ff 5c3e 4c97 35bd 3d00 88bd
00000050: a27f ba3e 13a6 8ebd 4987 df3e b230 dbbc
00000060: acff 8f3e c9cc 933e d9b9 f2bd 13f8 2bbe
00000070: 9269 06be cad2 27be f25d efbc ca6e a83d

fc4.weight f4 [1, 32]
-0.13161543 0.07645339 -0.061222646 0.045804035 0.12486263 -0.15318023 0.087302 0.029543705
-0.1473626 -0.058892533 0.13774954 -0.031231724 0.011448494 -0.059705585 -0.026219923 0.042139124
-0.045017503 -0.0678399 -0.03608573 -0.14919217 -0.026449416 -0.08682267 -0.06884967 0.035460178
-0.029168202 -0.021625174 0.09455962 0.053816717 0.074291795 0.104416125 0.038852233 -0.059871882
00000000: 32c6 06be 9893 9c3d 99c4 7abd 039d 3b3d
00000010: fbb7 ff3d 47db 1cbe 64cb b23d a405 f23c
00000020: 39e6 16be 4c39 71bd 370e 0d3e acd9 ffbc
00000030: 7792 3b3c d88d 74bd 2acb d6bc 139a 2c3d
00000040: 4664 38bd a5ef 8abd a1ce 13bd d5c5 18be
00000050: 72ac d8bc 16d0 b1bd 0e01 8dbd b13e 113d
00000060: 27f2 eebc 4727 b1bc 79a8 c13d eb6e 5c3d
00000070: 4c26 983d 1fd8 d53d 8523 1f3d 383c 75bd
