src/model/models/108/cnn_regressor_108.pt (torch, 247385 bytes, 7 tensors)

fc1.weight f4 [128, 394]
0.031635206 -0.040966008 -0.017661933 0.007485644 0.0012651726 0.026136395 -0.0257076 0.010175693
-0.042240363 -0.0097233765 -0.013813163 0.03131205 0.02314003 -0.006123089 0.040641047 -0.031941768
-0.04624619 0.04075281 0.033828873 0.026956467 -0.0280131 0.028779507 0.024224916 -0.013016664
-0.04088029 -0.043292183 -0.040155526 0.037622675 -0.04183134 0.024042686 0.029661985 0.029135494
-0.018700924 0.006839226 0.006052318 -0.052544557 0.027370652 0.0014527893 0.0074113086 0.026837096
-0.028346283 -0.039703336 -0.0006226801 0.016730586 -0.04166881 0.011361552 -0.0068621906 0.029130254
0.0016292445 -0.015568115 -0.010586727 -0.023188297 -0.025110729 0.029170962 0.032307684 0.0080103725
-0.009315487 0.040726583 -0.019822558 -0.014921609 0.017706865 0.0011327789 -0.038641762 0.040627237
-0.023964517 -0.001474805 0.020553218 0.03373349 -0.014724036 0.037593707 0.013523941 -0.052884996
-0.042357694 -0.017584318 0.040709324 0.042828094 0.009348766 -0.04452794 -0.009545721 0.021918321
0.04137144 0.029848527 -0.030115249 0.041643612 -0.006511365 0.009739158 -0.009807856 -0.008544999
-0.021261815 -0.011101211 -0.019502927 -0.03800115 -0.04574431 0.021647803 0.006003936 -0.009607936
0.017120782 -0.054249592 -0.03499248 -0.025313152 0.025191616 0.02104927 0.005552081 -0.003789103
0.025728302 0.008473805 -0.034497816 -0.04110489 -0.0076541603 0.037774656 0.042982582 -0.05518202
0.0058229463 0.031542465 -0.051259857 0.02359414 0.03224889 -0.016204866 0.014069822 -0.01935654
0.021415697 -0.056763425 -0.02252324 0.0045128413 -0.026400827 -0.0005476446 -0.023225725 -0.00755982
0.048578657 -0.030560419 0.04184115 0.025596943 0.0042803497 -0.034169544 -0.027054494 0.0481389
0.01359374 -0.0089973975 0.01755427 -0.03019157 -0.024500972 -0.043153074 -0.01063602 0.011331277
-0.03618349 -0.020887453 0.037676815 -0.0065214857 -0.004635032 -0.0074491943 -0.02883931 0.0005698675
-0.0536002 0.01012839 0.030215297 0.008012144 -0.031212999 -0.00911319 -0.032577246 -0.005163711
-0.0060745245 -0.05575172 0.007895927 0.029953659 0.0383495 0.032578997 0.03709836 0.022171393
0.00058517174 -0.04075849 0.015168599 -0.050364126 -0.02324667 -0.043148402 -0.015973836 -0.009783755
-0.036522776 -0.03990711 0.0023715203 0.040132504 -0.030404992 -0.030056585 -0.045328613 0.008352555
-0.018340657 -0.06237261 -0.047761936 0.002930407 0.030783739 0.027893342 -0.059774216 0.00023824975
0.02193299 -0.050273526 -0.012181256 -0.007785272 0.028377604 0.007362511 -0.043067668 0.021104764
-0.022026509 0.01067478 0.038303655 -0.051469356 -0.0024751402 0.043495722 -0.052351307 0.035479035
-0.008446228 -0.014712129 -0.050605334 0.002327366 -0.0011171907 -0.026201306 0.023248956 0.0013242029
-0.040457413 -0.035226025 0.014829068 7.443089e-06 0.040788606 0.029966239 -0.019780755 0.007848106
-0.04387788 -0.05485643 -0.0048023397 -0.04966188 -0.009447287 0.017668216 -0.0022796285 -0.045859993
-0.008490415 0.011267463 0.0034782758 -0.025223743 0.029607102 -0.009548524 0.027385289 0.03272565
0.018206114 -0.0034318347 0.010211072 -0.04897292 -0.026632642 0.005731892 0.041053634 -0.019635433
-0.023016283 0.041733045 -0.023019716 -0.007898693 0.02439058 0.022924406 -0.0039032483 0.007959266
00000000: eb93 013d f9cb 27bd c2af 90bc 224a f53b
00000010: 26d4 a53a fe1b d63c bf98 d2bc f3b7 263c
00000020: 3b04 2dbd cc4e 1fbc 9b50 62bc 1041 003d
00000030: 2990 bd3c 32a4 c8bb 3a77 263d 5fd5 02bd
00000040: a56c 3dbd 6bec 263d 2590 0a3d cfd3 dc3c
00000050: bb7b e5bc 00c3 eb3c 5573 c63c d943 55bc
00000060: 1772 27bd 2553 31bd 1f7a 24bd 3c1a 1a3d
00000070: 5757 2bbd 2bf5 c43c b1fd f23c 8fad ee3c
00000080: ae32 99bc 961b e03b 8652 c63b f638 57bd
00000090: 6b38 e03c 856b be3a 90da f23b 78d9 db3c
000000a0: 7736 e8bc f79f 22bd 5b3b 23ba 950e 893c
000000b0: eaac 2abd ce25 3a3c 3adc e0bb 92a2 ee3c
000000c0: 608c d53a 6811 7fbc f473 2dbc 62f5 bdbc
000000d0: 04b5 cdbc f1f7 ee3c 1055 043d f03d 033c
000000e0: fc9f 18bc ebd0 263d eb62 a2bc c479 74bc
000000f0: fd0d 913c c179 943a d346 1ebd bf68 263d
00000100: 3c51 c4bc 3e4e c1ba 395f a83c 212c 0a3d
00000110: 153d 71bc dcfb 193d 8593 5d3c f09d 58bd
00000120: 437f 2dbd fd0c 90bc d2be 263d 836c 2f3d
00000130: 912b 193c ee62 36bd a865 1cbc 0d8e b33c
00000140: 1975 293d e684 f43c 41b4 f6bc 7e92 2a3d
00000150: 4a5d d5bb fd90 1f3c 21b1 20bc 5300 0cbc
00000160: 422d aebc dbe1 35bc 9ac4 9fbc 18a7 1bbd
00000170: 635e 3bbd bc56 b13c aabc c43b 9b6a 1dbc
00000180: e240 8c3c d234 5ebd 4654 0fbd 875d cfbc
00000190: a65e ce3c 856f ac3c 3bee b53b 9952 78bb
000001a0: 29c4 d23c b7d5 0a3c 954d 0dbd 9a5d 28bd
000001b0: c0cf fabb 99b9 1a3d 810e 303d 8b06 62bd
000001c0: 6ace be3b ac32 013d dbf5 51bd 7f48 c13c
000001d0: 6917 043d 11c0 84bc 1c85 663c 9b91 9ebc
000001e0: f96f af3c c480 68bd a882 b8bc 75e0 933b
000001f0: 8c46 d8bc cf8f 0fba e043 bebc 5eb8 f7bb
00000200: 6afa 463d d859 fabc a061 2b3d aeb0 d13c
00000210: 2d42 8c3b 5df5 0bbd 63a1 ddbc 4c2d 453d
00000220: 47b8 5e3c d269 13bc f9cd 8f3c 5054 f7bc
00000230: 43b6 c8bc 47c1 30bd b442 2ebc d2a6 393c
00000240: 2435 14bd 2a1c abbc 0153 1a3d 30b2 d5bb
00000250: 77e1 97bb 5f18 f4bb 6b40 ecbc 2963 153a
00000260: e28b 5bbd 8cf1 253c 1286 f73c 5e45 033c
00000270: 67b2 ffbc 7d4f 15bc b86f 05bd 5934 a9bb
00000280: ce0c c7bb ea5b 64bd eb5d 013c 6061 f53c
00000290: 5e14 1d3d 8e71 053d 73f4 173d c8a0 b53c
000002a0: 3666 193a 60f2 26bd b785 783c 9d4a 4ebd
000002b0: cd6f bebc 61bc 30bd 90db 82bc 0b4c 20bc
000002c0: e898 15bd a375 23bd 826b 1b3b fb61 243d
000002d0: e413 f9bc 3a39 f6bc 7faa 39bd 28d9 083c
000002e0: 253f 96bc 6c7a 7fbd 05a2 43bd 120c 403b
000002f0: 2e2e fc3c 9480 e43c cfd5 74bd aed2 7939
00000300: d0ac b33c 9deb 4dbd e493 47bc 981b ffbb
00000310: 2678 e83c 3841 f13b b967 30bd e6e3 ac3c
00000320: f070 b4bc 46e5 2e3c 4be4 1c3d 88d1 52bd
00000330: f635 22bb 9228 323d 536e 56bd 7752 113d
00000340: 0c62 0abc 240b 71bc 8a47 4fbd b986 183b
00000350: b36e 92ba 1fa4 d6bc 9874 be3c e090 ad3a
00000360: acb6 25bd 2a49 10bd 9ff5 723c a6bf f936
00000370: f411 273d c27b f53c 400b a2bc 5895 003c
00000380: 4bb9 33bd 23b1 60bd f25c 9dbb 416a 4bbd
00000390: cbc8 1abc efbc 903c d265 15bb b0d7 3bbd
000003a0: 621b 0bbc 2a9b 383c c9f3 633b 06a2 cebc
000003b0: 988a f23c 6a71 1cbc 1d57 e03c 550b 063d
000003c0: fd24 953c a2e8 60bb 574c 273c d497 48bd
000003d0: b32c dabc 98d2 bb3b db27 283d 7dda a0bc
000003e0: a58c bcbc 45f0 2a3d d893 bcbc 8569 01bc
000003f0: c1ce c73c f7cb bb3c a4cd 7fbb 9567 023c

fc1.bias f4 [128]
0.044540793 0.017736753 -0.040129937 -0.047579724 -0.03088213 -0.05272454 -0.019262105 -0.044326186
-0.01957454 0.03202419 0.0019686264 0.050193753 -0.048268892 0.010543775 0.048957523 0.049535964
-0.014654704 -0.031022705 -0.03281207 -0.04879022 -0.010024492 -0.00072708953 0.036536362 -0.0002693981
0.027599787 -0.020670084 -0.050087374 0.032216772 -0.040893376 -0.017647743 -0.044621497 -0.036186162
-0.024989422 0.010298371 0.00926759 0.018607412 -0.055542905 -0.039610643 0.010872025 -0.04991584
-0.02998073 -0.023311691 -0.035677142 0.007289443 0.014066752 0.031099964 -0.016560301 -0.02254792
-0.020683499 0.005838569 -0.05003238 0.0012249425 0.021038147 -0.050140344 0.0040217317 -0.019596105
0.010075185 0.041310422 -0.056316752 -0.03416407 -0.018235689 0.023385206 -0.033285454 -0.049621567
-0.0161133 0.030272346 0.02411906 -0.04822567 0.037534107 0.032519918 -0.008853826 0.038827237
-0.02761887 0.026146192 0.011162687 -0.012197038 -0.029165886 0.02334998 -0.0012823497 -0.007246453
-0.005784847 -0.0010005414 0.029248923 -0.018142644 -0.05058744 -0.024528753 -0.022565983 0.0152231045
-0.006537062 -0.027086586 -0.038165443 0.0153757 0.031223468 -0.03480079 0.0055203233 -0.0056530195
0.020632401 0.00931298 -0.038557664 -0.022283196 -0.03722711 0.04967135 -0.01947751 0.009727253
-0.050923858 0.044282805 0.018882353 -0.010851104 -0.02049911 -0.027238004 -0.037755635 -0.018733757
0.013504813 0.03277552 -0.045854695 0.042481583 -0.01758451 0.029482415 -0.03093546 0.024621464
-0.04402705 0.041113097 -0.02945316 0.003984172 -0.026901672 0.04314071 -0.049463145 -0.0003775884
00000000: 6870 363d ab4c 913c 4a5f 24bd f5e2 42bd
00000010: 85fc fcbc b0f5 57bd 90cb 9dbc 608f 35bd
00000020: c95a a0bc cc2b 033d 1204 013b f797 4d3d
00000030: 9ab5 45bd ccbf 2c3c af87 483d 39e6 4a3d
00000040: 491a 70bc 5423 febc f365 06bd 41d8 47bd
00000050: c43d 24bc 279a 3eba 27a7 153d 003e 8db9
00000060: f318 e23c 4f54 a9bc 6b28 4dbd bcf5 033d
00000070: d07f 27bd 0092 90bc 08c5 36bd f137 14bd
00000080: 9eb6 ccbc 80ba 283c 17d7 173c 926e 983c
00000090: f580 63bd c53e 22bd 9420 323c 8d74 4cbd
000000a0: 269a f5bc 29f8 bebc 3222 12bd 48dc ee3b
000000b0: 3c78 663c 5ac5 fe3c 78a9 87bc 6ab6 b8bc
000000c0: 7170 a9bc 7751 bf3b c1ee 4cbd 408e a03a
000000d0: 3158 ac3c f65f 4dbd bbc8 833b 0388 a0bc
000000e0: 6412 253c 1e35 293d 65ac 66bd a0ef 0bbd
000000f0: 0363 95bc 5592 bf3c 5456 08bd fc3f 4bbd
00000100: 0a00 84bc b6fd f73c 5695 c53c 4888 45bd
00000110: 5dbd 193d 9b33 053d a30f 11bc 4f09 1f3d
00000120: f840 e2bc 8a30 d63c b4e3 363c 16d6 47bc
00000130: 4ced eebc 7548 bf3c 8414 a8ba a773 edbb
00000140: d08e bdbb 9924 83ba 709b ef3c e29f 94bc
00000150: c734 4fbd 86f0 c8bc 4cdc b8bc 546a 793c
00000160: da34 d6bb b0e4 ddbc 5e53 1cbd 5cea 7b3c
00000170: 5cc8 ff3c 468b 0ebd d4e3 b43b f73c b9bb
00000180: 4805 a93c 7895 183c a4ee 1dbd 408b b6bc
00000190: 747b 18bd 2f74 4b3d 4d8f 9fbc 0e5f 1f3c
000001a0: 8995 50bd e361 353d 2aaf 9a3c d4c8 31bc
000001b0: c0ed a7bc 3c22 dfbc a7a5 1abd 8977 99bc
000001c0: 4b43 5d3c a03f 063d 22d2 3bbd 2b01 2e3d
000001d0: 640d 90bc 1b85 f13c 5d6c fdbc f4b2 c93c
000001e0: b555 34bd 3566 283d c147 f1bc a88d 823b
000001f0: e560 dcbc 50b4 303d de99 4abd 0ff7 c5b9

fc2.weight f4 [64, 128]
-0.01980596 -0.04342218 -0.03791978 -0.057113647 0.08637049 0.030806102 0.016153581 -0.06307749
0.05332222 0.0011561736 -0.071878776 -0.05477735 -0.07281801 -0.032900196 0.04092566 -0.00608667
-0.09162539 -0.06048633 0.07500758 -0.052601628 0.07043616 -0.010099344 0.009439379 -0.01312089
0.05573354 0.06387999 0.05309341 0.0039396435 0.034454666 -0.05203252 -0.0871216 0.013398923
0.015306529 -0.08690145 -0.0025696903 0.08160772 0.063950114 -0.019009039 -0.05656464 -3.4317374e-05
-0.08584233 -0.07962492 -0.012699723 0.009296119 -0.057423625 -0.057472683 0.026339337 -0.08759804
-0.0838611 -0.06136658 0.01872315 -0.029102113 0.021431735 0.08820864 -0.025977042 -0.07330565
-0.0139138475 -0.06276482 -0.06252441 -0.0053266063 -0.10182784 0.036609005 0.012649134 -0.085058756
0.07751987 0.043201976 -0.08012394 -0.006283418 0.05951094 -0.07571314 0.07152658 -0.0086873695
-0.06230227 -0.054442633 -0.057117924 0.031373948 -0.04482858 -0.042139977 0.051149495 0.034064986
-0.010042012 -0.058563106 0.041342877 -0.005006746 -0.060002834 -0.03489489 -0.034801483 0.024531417
0.08272139 0.059778847 0.033197775 0.04931257 0.0627651 -0.1037524 0.02730143 -0.023236424
0.05352784 0.043380134 -0.056994446 -0.056494024 0.07969915 -0.045237847 -0.01216843 0.049791627
-0.0069712154 -0.023045518 0.037245773 0.012209548 0.04331065 -0.042908873 -0.037248846 0.028281644
0.025086671 -0.08897505 -0.02572687 -0.04093463 -0.038822822 0.013678815 0.020822555 -0.055034533
0.0023995861 0.07564034 -0.034031104 -0.052018166 -0.06464295 -0.016684704 -0.014468372 -0.046426386
0.05759126 0.022882642 0.030671127 -0.103957646 -0.0946003 -0.05961757 0.010704249 -0.028243924
-0.06390754 -0.065564424 0.056483593 0.08371002 -0.094605796 0.06600728 -0.05972357 0.0057886466
0.0033243948 0.014807368 0.0010329235 -0.020855632 -0.06920869 0.039465986 0.004979953 0.043074377
0.004400557 0.050850548 -0.06782422 -0.03708641 0.03944299 -0.081319675 0.017282445 0.010749278
0.021889215 -0.033338096 -0.02986529 -0.057167597 0.0074979644 -0.028303307 -0.05006247 0.019048912
-0.027352672 0.018037878 0.038295843 0.022306494 0.07429885 -0.07793196 -0.040457822 0.003944502
0.0579528 0.027977737 0.041963056 0.06983901 -0.087996736 -0.04305015 0.07686085 0.021527043
-0.029429205 -0.04683699 -0.04231389 0.023080043 0.010156062 -0.031933572 -0.08218514 0.08826225
0.072226495 0.018143572 -0.019962905 0.047875617 -0.015424199 -0.082959525 0.045132525 -0.006052211
-0.03808225 0.055200607 -0.055549294 0.069252305 0.06843249 -0.04210888 0.0177883 -0.09915248
-0.051134493 -0.027218714 -0.10558528 -0.043091368 -0.024789046 -0.02917549 -0.0324852 0.045819096
-0.04297593 -0.08099686 0.022957424 6.0372055e-05 -0.035457294 -0.0042403406 -0.08182231 -0.024625108
-0.00044318 -0.035732087 -0.05790149 -0.06937558 0.010876551 -0.038959704 -0.007901363 -0.06865651
-0.07410602 0.033181056 -0.08538283 -0.036909033 0.08345262 0.048945572 -0.046220597 -0.033586103
-0.07162272 0.008526586 -0.058764726 -0.026531767 0.042503394 -0.040007435 0.025698356 -0.05777911
-0.092710465 -0.022436487 0.028091164 -0.075850785 0.02169126 -0.016319267 0.061998583 0.051346872
00000000: 1c40 a2bc 75db 31bd c551 1bbd 00f0 69bd
00000010: 03e3 b03d 145d fc3c 8454 843c c52e 81bd
00000020: 6668 5a3d c08a 973a 2e35 93bd 375e 60bd
00000030: 9c21 95bd 5bc2 06bd aaa1 273d b072 c7bb
00000040: 18a6 bbbd 84c0 77bd 939d 993d ce74 57bd
00000050: d540 903d b877 25bc a0a7 1a3c 00f9 56bc
00000060: da48 643d 83d3 823d 7a78 593d 2018 813b
00000070: 5620 0d3d 0d20 55bd cf6c b2bd 2887 5b3c
00000080: 3cc8 7a3c 63f9 b1bd 4068 28bb f321 a73d
00000090: 47f8 823d d8b8 9bbc 53b0 67bd 00f0 0fb8
000000a0: 1ace afbd 6412 a3bd 8012 50bc c04e 183c
000000b0: 0935 6bbd 7a68 6bbd 98c5 d73c 9a66 b3bd
000000c0: 5ebf abbd 865b 7bbd 4b61 993c 8e67 eebc
000000d0: 9b91 af3c bba6 b43d cecd d4bc 4621 96bd
000000e0: e8f6 63bc d88a 80bd cc0c 80bd d08a aebb
000000f0: 1d8b d0bd 53f3 153d 503e 4f3c 4933 aebd
00000100: bdc2 9e3d 8ef4 303d 0518 a4bd 21e5 cdbb
00000110: bec1 733d 7e0f 9bbd 877c 923d 7855 0ebc
00000120: aa30 7fbd 3dff 5ebd 7cf4 69bd f881 003d
00000130: 2c9e 37bd f89a 2cbd 2282 513d ba87 0b3d
00000140: 4087 24bc dedf 6fbd 2657 293d a10f a4bb
00000150: 88c5 75bd f2ed 0ebd 008c 0ebd 1cf6 c83c
00000160: d569 a93d aada 743d 64fa 073d fafb 493d
00000170: fd8a 803d 237c d4bd 40a7 df3c 505a bebc
00000180: 0240 5b3d 5eaf 313d 0273 69bd 4766 67bd
00000190: 4f39 a33d 524b 39bd 185e 47bc 4ef2 4b3d
000001a0: cb6e e4bb f4c9 bcbc 068f 183d 8e0a 483c
000001b0: 8266 313d 37c1 2fbd 3f92 18bd e8ae e73c
000001c0: 9082 cd3c 8d38 b6bd 28c1 d2bc 12ab 27bd
000001d0: ae04 1fbd 1c1d 603c 1094 aa3c e46b 61bd
000001e0: 6042 1d3b 53e9 9a3d 3364 0bbd 0011 55bd
000001f0: 8663 84bd 5cae 88bc c00c 6dbc 9829 3ebd
00000200: d0e4 6b3d 6174 bb3c 0442 fb3c bfe7 d4bd
00000210: cdbd c1bd 8e31 74bd e060 2f3c cd5f e7bc
00000220: f5e1 82bd a446 86bd 575b 673d 2970 ab3d
00000230: afc0 c1bd d32e 873d b4a0 74bd b0ae bd3b
00000240: 17de 593b 9a9a 723c 2963 873a 6ed9 aabc
00000250: 49bd 8dbd 16a7 213d e02e a33b c26e 303d
00000260: 8c32 903b aa48 503d 6de7 8abd ebe7 17bd
00000270: f98e 213d ee8a a6bd ea93 8d3c bd1d 303c
00000280: 0351 b33c 878d 08bd 0da8 f4bc 9228 6abd
00000290: 7cb1 f53b 56dc e7bc 4e0e 4dbd 770c 9c3c
000002a0: b612 e0bc 2cc4 933c 1adc 1c3d 1cbc b63c
000002b0: ff29 983d cb9a 9fbd 1ab7 25bd e240 813b
000002c0: ea5f 6d3d 9131 e53c 74e1 2b3d c107 8f3d
000002d0: a237 b4bd 5b55 30bd 3969 9d3d 7b59 b03c
000002e0: 8415 f1bc 25d8 3fbd 5451 2dbd 5c12 bd3c
000002f0: 9d65 263c c7cc 02bd af50 a8bd d7c2 b43d
00000300: 7ceb 933d d4a1 943c 3f89 a3bc 3919 443d
00000310: c8b5 7cbc afe6 a9bd e2dc 383d a051 c6bb
00000320: 22fc 1bbd 081a 623d a887 63bd 27d4 8d3d
00000330: 5526 8c3d 5c7a 2cbd c5b8 913c 7510 cbbd
00000340: 6772 51bd c8f9 debc 183d d8bd 9380 30bd
00000350: 6612 cbbc 7001 efbc 330f 05bd ceac 3b3d
00000360: 8707 30bd afe1 a5bd 3511 bc3c 0038 7d38
00000370: ab3b 11bd 8ef2 8abb 7592 a7bd 98ba c9bc
00000380: 9d5a e8b9 cf5b 12bd 1d2a 6dbd c914 8ebd
00000390: 9033 323c 3694 1fbd b874 01bc c99b 8cbd
000003a0: e6c4 97bd dce8 073d 31dd aebd ed2d 17bd
000003b0: 35e9 aa3d 277b 483d cf51 3dbd 9591 09bd
000003c0: efae 92bd 18b3 0b3c 48b3 70bd 2659 d9bc
000003d0: 0a18 2e3d d6de 23bd 5c85 d23c caa9 6cbd
000003e0: fcde bdbd b9cc b7bc 711f e63c a857 9bbd
000003f0: dfb1 b13c fcaf 85bc 3af2 7d3d 1951 523d

fc2.bias f4 [64]
-0.08008347 0.06819774 -0.09101026 -0.023771977 -0.04036784 -0.11690037 0.021037675 -0.009991474
-0.076449394 -0.11899158 -0.12896842 -0.06452329 -0.03483027 0.049263123 -0.034614604 0.019546364
-0.066386715 -0.066033065 -0.100321 -0.05456825 -0.11633942 0.019919902 0.041512262 -0.0170108
0.06927016 -0.036760174 0.036722377 -0.029423796 -0.021453252 0.051554948 0.03540706 0.08728556
0.076824166 -0.14906281 -0.023414874 -0.031171756 0.036924675 -0.0786358 -0.034147907 -0.026120564
-0.048125964 0.07041967 0.073717244 -0.054013688 -0.009456393 -0.037655957 0.023858711 -0.059204575
0.06367256 0.022089886 -0.010731067 0.07901682 -0.0006879846 -0.10635317 -0.042479586 -0.009984854
0.045008734 -0.0012767814 -0.05781086 -0.04135663 -0.061649293 0.002358151 0.05783711 -0.0685626
00000000: cd02 a4bd 42ab 8b3d 9663 babd 73bd c2bc
00000010: c058 25bd 7669 efbd 3457 ac3c 48b3 23bc
00000020: 8091 9cbd dcb1 f3bd 4c10 04be c924 84bd
00000030: 2faa 0ebd 21c8 493d 0bc8 0dbd b21f a03c
00000040: c2f5 87bd 583c 87bd 1975 cdbd f582 5fbd
00000050: 5d43 eebd 102f a33c c308 2a3d 3c5a 8bbc
00000060: 83dd 8d3d d691 16bd 346a 163d 2c0a f1bc
00000070: bbbe afbc 482b 533d fe06 113d c6c2 b23d
00000080: fd55 9d3d eca3 18be 8dd0 bfbc e95b ffbc
00000090: 543e 173d ce0b a1bd adde 0bbd cbfa d5bc
000000a0: bb1f 45bd 3038 903d 11f9 963d 753d 5dbd
000000b0: fdee 1abc 223d 1abd 5873 c33c 7f80 72bd
000000c0: c266 823d d9f5 b43c 5bd1 2fbc 92d3 a13d
000000d0: dd59 34ba b1cf d9bd 13ff 2dbd 8397 23bc
000000e0: 145b 383d ad59 a7ba 15cb 6cbd 9265 29bd
000000f0: f883 7cbd 358b 1a3b 9be6 6c3d 8c6a 8cbd

fc3.weight f4 [32, 64]
-0.12874004 -0.020077229 0.08272684 -0.017870871 0.1008413 0.03012387 -0.06454615 -0.06901491
0.06946525 -0.11923855 -0.19327238 -0.06908587 0.06399179 0.10396848 0.07203621 -0.008800873
0.03982639 -0.098621435 -0.04944648 0.03996077 -0.011714595 0.023296177 0.044714548 0.08980959
-0.051116195 0.08512977 0.07157119 -0.0876209 -0.0016341395 0.0765568 0.025329225 0.06052213
-0.0034790142 0.034145437 -0.020980978 0.021535363 -0.11928453 -0.09373142 -0.065364726 -0.041536517
0.049212717 0.050139308 0.06095945 -0.032080553 -0.03834353 -0.050164893 -0.003402819 -0.07400347
-0.055773772 -0.114666805 -0.11779583 -0.07392026 0.09580958 0.12510076 -0.032257125 -0.08514228
-0.08928703 0.00051664724 0.061679672 -0.00018248467 0.03821621 0.050728697 -0.0019651556 -0.13103476
0.046066348 0.08005699 -0.076789685 -0.088270985 0.07115027 -0.09454498 -0.036863174 0.018647553
-0.14996634 0.101730324 0.08844509 -0.08466879 -0.07130739 0.12519157 -0.04835493 -0.04299111
-0.008275425 0.0830616 0.056780133 -0.086371206 -0.06509674 -0.0929331 -0.095857665 0.015821464
-0.11395575 -0.029567653 -0.08529534 0.10007849 0.058202714 -0.11741265 -0.034726188 -0.11687355
-0.027424967 0.06224375 0.052247196 -0.048314124 -0.028145712 0.09987386 -0.091868855 0.034829654
-0.037310775 -0.057057958 -0.0055034426 0.083389975 -0.06057217 0.023710843 -0.09367718 0.114281885
-0.065877475 0.115213506 -0.07005678 -0.1101119 -0.055725545 -0.0264476 -0.010971635 0.0004443509
-0.065738894 0.06625368 0.041384727 0.02294282 -0.044402104 0.06882465 0.116433576 -0.024408597
-0.030118022 -0.10118149 -0.04525716 0.05858099 -0.00878151 -0.04295209 0.045562074 0.02028517
-0.03814961 0.038323224 0.046466723 0.0770985 -0.07414414 0.11281802 -0.07001662 -0.104511626
-0.03821681 0.057980776 -0.0060114847 0.0041522896 -0.023610769 -0.1281005 -0.04070469 0.060292352
-0.07892865 -0.05523465 0.1062272 -0.07891831 -0.10030577 -0.13196343 0.08822289 0.085338265
-0.07026208 0.04918851 0.010200545 -0.062235005 -0.06103602 0.029553123 -0.029303815 0.0752824
0.1029361 -0.116547465 -0.032436255 0.10273711 0.01664136 -0.10998761 -0.032828458 -0.07080178
-0.07591116 -0.104803935 0.099923976 -0.052399173 0.048888516 -0.13117947 -0.018468741 -0.007600598
-0.09366015 0.050302777 0.039773908 0.049335033 0.061413363 -0.06018648 -0.13046518 0.11863996
0.072479144 0.06895404 -0.090871215 0.044236887 0.046186257 0.006670857 0.12104842 0.06380374
-0.11276078 0.03526612 -0.052228842 -0.049519517 0.07615675 0.054821443 -0.020351058 -0.12467543
0.088674106 0.059994716 -0.02424548 -0.04563639 0.11809332 0.06485409 0.024002431 0.016492687
-0.068579294 0.012523222 -0.04434815 -0.009844519 0.050478823 0.06595884 0.016556613 0.11865031
-0.040036567 0.06423981 0.033697147 0.024837818 -0.005122725 -0.092296354 -0.10450412 -0.091664985
0.030712856 0.053725246 0.09492894 0.053481493 0.0666284 -0.05109345 0.06857648 0.102417454
0.09266628 -0.042314727 -0.0014855003 -0.038582735 0.111186996 -0.07155967 -0.044467445 0.053659733
-0.028854532 -0.061313074 -0.060997266 -0.11196428 -0.014854741 -0.032479227 0.030951712 -0.039729517
00000000: 6ed4 03be 0079 a4bc b16c a93d ef65 92bc
00000010: e285 ce3d 56c6 f63c c630 84bd b057 8dbd
00000020: cc43 8e3d 5733 f4bd 32e9 45be e57c 8dbd
00000030: 210e 833d 6ded d43d b887 933d 8931 10bc
00000040: ff20 233d 09fa c9bd 6488 4abd e8ad 233d
00000050: 93ee 3fbc a0d7 be3c 9a26 373d 17ee b73d
00000060: 375f 51bd 8458 ae3d eb93 923d 9672 b3bd
00000070: 9f30 d6ba d0c9 9c3d 3c7f cf3c 0ee6 773d
00000080: 2c00 64bb 16dc 0b3d 4de0 abbc ee6a b03c
00000090: 734b f4bd 42f6 bfbd f1dd 85bd 3222 2abd
000000a0: 4693 493d e05e 4d3d 9eb0 793d e666 03bd
000000b0: 1b0e 1dbd b479 4dbd d401 5fbb 228f 97bd
000000c0: 0a73 64bd 6ed6 eabd f13e f1bd 8163 97bd
000000d0: d037 c43d 6a1a 003e 0c20 04bd 135f aebd
000000e0: 1edc b6bd 9c6f 073a d3a3 7c3d 5b59 3fb9
000000f0: 9a88 1c3d e5c8 4f3d d7c9 00bb fa2d 06be
00000100: 11b0 3c3d ebf4 a33d e943 9dbd 6bc7 b4bd
00000110: 3cb7 913d cca0 c1bd d7fd 16bd c1c2 983c
00000120: c790 19be fd57 d03d b322 b53d d566 adbd
00000130: 9c09 92bd 3832 003e d20f 46bd 7217 30bd
00000140: a695 07bc 331c aa3d 4992 683d 63e3 b0bd
00000150: 7151 85bd b653 bebd 0651 c4bd 049c 813c
00000160: a261 e9bd dd37 f2bc 53af aebd f4f5 cc3d
00000170: f865 6e3d 0b76 f0bd 0c3d 0ebd 665b efbd
00000180: 53aa e0bc 4df3 7e3d 2801 563d 08e5 45bd
00000190: d691 e6bc ab8a cc3d bd25 bcbd 8aa9 0e3d
000001a0: 2fd3 18bd 9bb5 69bd 3956 b4bb 5dc8 aa3d
000001b0: 861a 78bd 3e3d c23c d2d9 bfbd 9f0c ea3d
000001c0: c5ea 86bd 0ff5 eb3d ee79 8fbd 5982 e1bd
000001d0: 7840 64bd a3a8 d8bc 5fc2 33bc c5f7 e839
000001e0: 1da2 86bd 02b0 873d 0883 293d 95f2 bb3c
000001f0: fbde 35bd f0f3 8c3d ba74 ee3d 8af4 c7bc
00000200: 12ba f6bc 3e38 cfbd 925f 39bd 9ff2 6f3d
00000210: 53e0 0fbc 88ee 2fbd 4c9f 3a3d 162d a63c
00000220: c442 1cbd d0f8 1c3d e453 3e3d d2e5 9d3d
00000230: e2d8 97bd 220d e73d e064 8fbd 310a d6bd
00000240: 3b89 1cbd 407d 6d3d fdfb c4bb ee0f 883b
00000250: 5f6b c1bc c72c 03be f6b9 26bd 1df5 763d
00000260: 58a5 a1bd ba3d 62bd a58d d93d ec9f a1bd
00000270: 1d6d cdbd 6c21 07be 34ae b43d d4c5 ae3d
00000280: 91e5 8fbd e479 493d 3020 273c 22ea 7ebd
00000290: e800 7abd 6419 f23c 8e0e f0bc a92d 9a3d
000002a0: 29d0 d23d 70b0 eebd e1db 04bd d567 d23d
000002b0: 7653 883c 2f41 e1bd 2277 06bd 8600 91bd
000002c0: 4f77 9bbd 72a3 d6bd f1a4 cc3d 84a0 56bd
000002d0: 533f 483d e953 06be c24b 97bc 700e f9bb
000002e0: e5d0 bfbd 490a 4e3d f7e9 223d 8813 4a3d
000002f0: 948c 7b3d 1986 76bd aa98 05be 82f9 f23d
00000300: f26f 943d c737 8d3d b01a babd bd31 353d
00000310: cd2d 3d3d 3497 da3b 3ce8 f73d 89ab 823d
00000320: 20ef e6bd 3573 103d e9ed 55bd fad4 4abd
00000330: 12f8 9b3d 738c 603d 43b7 a6bc d555 ffbd
00000340: c59a b53d 05bd 753d 759e c6bc 39ed 3abd
00000350: e9da f13d 39d2 843d bfa0 c43c ac1b 873c
00000360: 4d73 8cbd 332e 4d3c 68a6 35bd e84a 21bc
00000370: e2c2 4e3d 6e15 873d bca1 873c effe f23d
00000380: 62fd 23bd 2990 833d 0506 0a3d ae78 cb3c
00000390: 88dc a7bb df05 bdbd 4206 d6bd daba bbbd
000003a0: 8799 fb3c 010f 5c3d 1b6a c23d 690f 5b3d
000003b0: 7874 883d 5e47 51bd d371 8c3d 3ec0 d13d
000003c0: d2c7 bd3d 3552 2dbd 1eb5 c2ba ee08 1ebd
000003d0: 02b6 e33d e08d 92bd 7f23 36bd 4fca 5b3d
000003e0: 5760 ecbc 6b23 7bbd 45d8 79bd 874d e5bd
000003f0: 4d61 73bc f008 05bd 728e fd3c 6bbb 22bd

fc3.bias f4 [32]
0.100076206 -0.06776863 0.0029265403 0.028690126 0.08839569 0.06546727 -0.109262794 -0.09259782
-0.12802012 -0.15487355 0.057689685 0.005767237 0.030231548 -0.028890701 0.013255281 0.057402875
-0.018313501 0.0913174 0.04303973 -0.028114108 0.0655414 0.15049495 -0.16392252 0.17920493
-0.052877773 0.0792222 0.09167967 -0.15189777 -0.06755733 0.029462663 -0.107385576 -0.042835712
00000000: c1f4 cc3d 48ca 8abd 33cb 3f3b 8e07 eb3c
00000010: cd08 b53d b413 863d 2cc5 dfbd eda3 bdbd
00000020: b517 03be 2c97 1ebe 054c 6c3d 17fb bc3b
00000030: 27a8 f73c 31ac ecbc ae2c 593c 471f 6b3d
00000040: 3206 96bc 9e04 bb3d 6e4a 303d 8f4f e6bc
00000050: 923a 863d 591b 1a3e 4edb 27be 7f81 373e
00000060: 5d96 58bd 403f a23d 8dc2 bb3d 178b 1bbe
00000070: 7f5b 8abd af5b f13c f8ec dbbd 8074 2fbd

fc4.weight f4 [1, 32]
0.13547806 0.1427534 -0.018563038 0.09620661 0.02836143 0.07885355 -0.10144072 -0.036274623
-0.012864521 0.0053636287 0.14237131 -0.16041993 -0.11969632 -0.13273674 0.00088481745 -0.035976272
-0.015299629 -0.020642426 -0.07758009 -0.086595215 0.13931596 0.09394859 -0.011770145 0.053233508
0.055576686 -0.01769191 -0.10521244 -0.07662753 -0.12275666 0.040969882 -0.12962136 0.10583993
00000000: c3ba 0a3e f32d 123e 8311 98bc f907 c53d
00000010: 3b56 e83c f87d a13d 27c0 cfbd b394 14bd
00000020: b6c5 52bc 61c1 af3b c9c9 113e 1f45 24be
00000030: 5823 f5bd 24ec 07be 18f3 673a db5b 13bd
00000040: 4cab 7abc 4e1a a9bc 4fe2 9ebd d558 b1bd
00000050: d8a8 0e3e 1e68 c03d 91d7 40bc 610b 5a3d
00000060: 61a4 633d a0ee 90bc 9f79 d7bd e5ee 9cbd
00000070: d867 fbbd 09d0 273d 76bb 04be 9bc2 d83d
