src/model/models/112/cnn_regressor_112.pt (torch, 247385 bytes, 7 tensors)

fc1.weight f4 [128, 394]
000000 f7 93 0c bd 54 6c 46 3d b1 a2 d1 bb d0 ce 8c bc
       -0.034320798 0.048443154 -0.006397568 -0.01718846
000010 1d d7 e2 3c 96 95 27 bd 13 cf 25 bd df 86 41 bd
       0.027690465 -0.04091414 -0.040480684 -0.047247764
000020 00 fb 85 3b e4 aa 94 bc 7f 06 2d 3c da 9b 46 bd
       0.0040887594 -0.018147893 0.010560631 -0.048488475
000030 e7 59 a4 3c d9 03 c4 ba ea d5 da 3b 4f 64 f2 bc
       0.0200624 -0.001495476 0.0066783326 -0.029588846
000040 cb 69 20 3d 3c 52 5d bb dd bd 50 bc cd 5a 52 3c
       0.039163392 -0.003377094 -0.012740579 0.012839031
000050 3f c8 a5 3b be 0a 96 3c a4 46 a4 bb 4b e9 5b bd
       0.0050592716 0.01831567 -0.005013304 -0.053689282
000060 68 27 d8 3c 3a 07 ec 3c 6c 96 be bc d9 6a 93 bc
       0.026385978 0.02881204 -0.023265086 -0.017995285
000070 46 2a 16 bd f6 54 28 bb dd 10 1a 3a e0 f9 2e 3a
       -0.03666141 -0.0025685406 0.00058771466 0.00066748075
000080 7d 74 98 3c d5 21 23 bd 14 3f 3f 3c 57 b2 32 3d
       0.018610233 -0.039827187 0.011672754 0.04362711
000090 3b b2 30 3d 8f e1 21 bd fd 1b c5 3b cb 6d 1a 3d
       0.043138724 -0.03952175 0.0060152994 0.037702363
0000a0 a7 ac 2e 3d af 1f 16 bd 98 28 34 bd e5 53 6e 3c
       0.042645123 -0.03665131 -0.043984026 0.014546369
0000b0 15 32 0c bc e5 6f 6d bc bf e5 f7 bc e4 b0 1b bd
       -0.008556862 -0.01449201 -0.030260919 -0.038010493
0000c0 13 a9 0b 3d d3 0f 6b 3c dd 76 03 3d 16 c5 34 3d
       0.03409679 0.0143470345 0.03209578 0.04413327
0000d0 e2 bd cd bc f0 7c 1f bd dd 90 85 3c b2 23 5f bd
       -0.025114957 -0.03893751 0.016304428 -0.0544774
0000e0 e9 cc 90 bb a0 43 0d bd 74 f1 34 bd b8 56 95 bc
       -0.0044189584 -0.03448832 -0.04417558 -0.018229827
0000f0 9a 6b 37 bd 8b 9e d0 bc c5 e9 e5 bc d1 27 69 bb
       -0.04478035 -0.025466224 -0.028065572 -0.003557671
000100 58 df 02 bd 77 c8 40 bd dd a1 15 3d 4f 30 37 bd
       -0.03195128 -0.04706618 0.036531318 -0.044723805
000110 e7 05 5e 3c 2d d5 4c bd e8 67 46 bd 56 63 3e bc
       0.013551212 -0.050007988 -0.048438936 -0.011620363
000120 28 46 bc 3c 51 49 e5 3c 09 df 21 3d cf 06 0f bc
       0.022982672 0.027989062 0.039519344 -0.008729651
000130 9a d1 c5 3b a0 e2 f7 3c d3 4b af 3c a3 4f 38 3c
       0.0060369493 0.03025943 0.02139846 0.011249456
000140 c5 90 88 3c 87 ba 41 bd 37 72 3d bc 99 75 4f bd
       0.016670594 -0.047297027 -0.0115628755 -0.05064926
000150 ea 09 2a 3c 75 03 f1 bb 7e 50 b1 bc de b3 9d bb
       0.01037834 -0.0073551484 -0.021644827 -0.0048127016
000160 f1 46 06 bb 3c 94 32 3d e4 e6 1e 3d 34 bc 92 3c
       -0.0020489062 0.0435984 0.038794413 0.017912008
000170 2d 5c 7a bc 25 25 ed bb a9 14 d5 3b 13 80 00 3b
       -0.0152807655 -0.007237094 0.006502707 0.0019607588
000180 83 cb 0c bd 3f 2b 99 3c 76 b9 a3 3c 24 ec 5b bd
       -0.03437377 0.01869738 0.019985896 -0.053691998
000190 5b d7 17 bd 0b ed 9b 3c ab 66 4d bc 3c 84 4a bd
       -0.037070613 0.01903393 -0.012536685 -0.049442515
0001a0 7c 22 0d bd 60 40 47 bd a7 47 5b 3c 96 57 ff 3c
       -0.034456715 -0.048645377 0.0133837825 0.031169694
0001b0 56 f2 54 3c 71 91 11 3d 4f 4f 36 bd 12 3d 0e 3c
       0.0129972305 0.035539094 -0.04450923 0.0086815525
0001c0 b2 95 49 bd 6c 99 93 3c ff 27 0d bd e8 da 03 bd
       -0.049215026 0.018017493 -0.03446197 -0.032191187
0001d0 f9 1b 3b bd 1d 8a 44 3c 03 8f 2d bd b5 3f 2b bd
       -0.045680974 0.011995819 -0.042372715 -0.041808803
0001e0 83 15 16 bd 8e be b5 bc 33 47 6c bd cb 1f 2e 3d
       -0.03664161 -0.02218559 -0.05768509 0.04251079
0001f0 77 6c 47 bb 5f d2 d7 bc ca fd f0 bc a8 09 1d bc
       -0.003042964 -0.02634543 -0.029417891 -0.009584822
000200 9d 35 4a 3c 0e cd d0 3b ad d9 36 bc 6c f3 c2 3c
       0.012341884 0.0063721007 -0.011160296 0.023797713
000210 1b e9 2f 3d ab 2a e4 bc e3 ff 59 bd a5 fe a5 3c
       0.042946916 -0.027852377 -0.05322255 0.020263026
000220 a5 02 3d 3a dc b1 00 bc cb 09 4b bc 29 cc 14 bc
       0.0007210172 -0.007854905 -0.012392472 -0.009081879
000230 bc 5d 39 bc 5b bb 4f bd 60 af 1a 3c 8d f6 82 bc
       -0.011313852 -0.050715785 0.009441227 -0.015986705
000240 48 38 b9 3b ca a1 ac 3c 4a 4a e3 3c 4f bd 36 bd
       0.005652461 0.02107324 0.027745385 -0.044614132
000250 31 8c 82 bc f2 b3 82 3c 84 ea c5 3c 52 b9 f5 bc
       -0.01593599 0.015954945 0.024159677 -0.029995594
000260 2b f6 56 bc d0 2a ef 3c 28 48 19 3d b5 94 0d 3d
       -0.013120214 0.02919522 0.03742233 0.034565646
000270 27 ec 37 bd 3a f3 18 bb 8c a3 45 bd a9 0d d7 3c
       -0.044902947 -0.0023338334 -0.048251674 0.02625163
000280 d8 4a 26 3d 4e eb 1e 3d d5 b9 e4 3c d9 48 4b bd
       0.04059872 0.038798623 0.027920643 -0.04963002
000290 c6 35 68 3a c2 83 18 bd bf 98 13 3d 98 1b 28 3d
       0.00088581105 -0.03723503 0.036034342 0.04104194
0002a0 3e f6 10 3d ff 8a 2d bd 3e 8c f5 3c 23 b0 8f bb
       0.035391085 -0.042368885 0.0299741 -0.004385011
0002b0 14 5c 59 bc 26 32 23 3b 57 09 3a bd 6a 4b 2d bd
       -0.013266582 0.0024901717 -0.045419063 -0.04230825
0002c0 dc cf 49 bd ca 4e 19 bd 94 fd ab bc 30 94 d6 bc
       -0.049270496 -0.037428655 -0.020994939 -0.026193708
0002d0 7a d8 fc bc 00 c0 35 3d f7 06 0c 3d c5 6b cc 3c
       -0.030864943 0.04437256 0.03418633 0.024953732
0002e0 5b ff 3f 3c 1d 2c 0a 3c 5c 62 95 3c 94 ea 4a 3d
       0.011718596 0.008433369 0.018235378 0.049540117
0002f0 6e b7 48 3c da 24 36 3d 18 18 d8 bc e2 37 ab 3c
       0.012250764 0.04446874 -0.026378676 0.02090067
000300 67 9b c3 3c b7 d7 a7 bb 8c 35 2e bd c0 a5 46 bb
       0.023877813 -0.0051221508 -0.042531535 -0.0030311197
000310 ea 2a 08 bd 26 b8 c0 3c c9 2f 01 3d f3 44 1c 3d
       -0.03324405 0.023525309 0.031539712 0.038151693
000320 7c cf bd bc 7b eb 12 bc 9f 9e 13 bd 22 cf 3b 3c
       -0.023170225 -0.008967276 -0.036039945 0.0114629585
000330 2a 5d 98 3c 7c 9a 8d bc b8 0f 0c 3a 9a 57 67 3c
       0.018599112 -0.017285578 0.00053429184 0.014120007
000340 87 2e 10 bc d9 26 ed 3c e2 a1 1d bd 05 88 d4 3c
       -0.0088001555 0.028949188 -0.03848446 0.025943765
000350 17 24 75 bb 9a 9a 8c 3c 0a 27 33 3b fe 38 fe 3c
       -0.0037405544 0.017163564 0.0027336502 0.031033035
000360 f4 b8 4e bc 97 65 16 3d c6 5b b1 3c ce 8b 32 bd
       -0.012617338 0.036717977 0.021650206 -0.04359036
000370 7f 4e b4 bc a0 d2 8f 3c d8 d9 14 3c 8b d9 10 bc
       -0.022010086 0.017556489 0.009085141 -0.008840929
000380 e0 28 2c 3c f9 dc 60 3c 0f 28 5e 3c 53 80 1e bd
       0.010507792 0.013724559 0.013559355 -0.0386966
000390 3c 6e 1e bd 66 2f 8f bc da b0 0b bd b8 37 2d 3d
       -0.038679346 -0.017478656 -0.034104206 0.042289466
0003a0 37 21 07 3d f7 11 1e bd dc 41 23 3d 60 43 68 3c
       0.03299066 -0.03859135 0.03985773 0.01417622
0003b0 a6 02 be bc bb d0 71 bb 6e b9 59 bb 2b e6 3c bd
       -0.023194622 -0.0036898095 -0.0033222097 -0.046117943
0003c0 29 82 a5 3c 3e 6d fc bc db 2f 3c bc 5c de 01 3d
       0.020203667 -0.03081381 -0.011486019 0.0317062
0003d0 9c 66 53 bd 80 21 21 bd 93 22 0c bd 89 2a 52 bd
       -0.051611528 -0.03933859 -0.03421266 -0.051310096
0003e0 a1 11 e3 bc b9 b0 42 3c 2c 36 1a bd 0c 49 51 3c
       -0.027718367 0.011882954 -0.03764932 0.012773763
0003f0 b7 16 32 3c 8e 1c f1 3c ca f2 4f 3c 8c c3 93 bc
       0.010869673 0.029432561 0.012692163 -0.01803758

fc1.bias f4 [128]
000000 c0 ef 14 3b 84 bc 38 bd 98 c6 62 bc 0c e5 0d bd
       0.002272591 -0.045101658 -0.013841294 -0.034642264
000010 b8 8a 26 bc af f5 01 3d fd 14 e6 bc 25 22 44 3d
       -0.010164909 0.031728443 -0.02808618 0.047884125
000020 d4 e6 77 3c 16 75 bb 3c d3 79 f3 3c 46 24 0a bd
       0.015130717 0.02288298 0.029721176 -0.033726
000030 fc bd 1a 3d 2a aa 36 bd fc 77 06 bd 46 d7 cb bb
       0.03777884 -0.044595875 -0.03282927 -0.006220731
000040 f8 c7 4b bc 03 30 32 bd 28 93 e5 3c 78 fd 09 bd
       -0.012437813 -0.04350282 0.028024271 -0.033688992
000050 d8 82 e2 bc 59 ce aa bc 37 af dd bc 3b fb 30 bc
       -0.027650282 -0.020850347 -0.027061088 -0.0108020855
000060 e6 9b d6 bc f4 45 29 3c 84 94 1e 3d e1 d2 44 3d
       -0.026197385 0.0103316195 0.038715854 0.048052672
000070 5c 49 8c bc ab 00 49 bd a0 04 0c 3b 4e 03 81 3c
       -0.017124824 -0.049072903 0.0021365061 0.015748646
000080 ac c0 02 3c aa c0 38 bd f4 f6 ff bc 20 96 93 bc
       0.007980507 -0.045105614 -0.031245686 -0.018015921
000090 53 f1 0d bd 1c 1c be bc b7 03 a6 bc fc 1c 03 3d
       -0.034653973 -0.023206763 -0.020265443 0.032010064
0000a0 fc 80 49 3c 29 b3 ea bc 24 71 09 bc b6 fb 0f 3d
       0.012298819 -0.028649883 -0.008388791 0.03515216
0000b0 3b f5 90 3c de 6c cd bb 56 12 83 3c 12 66 45 bd
       0.01769506 -0.0062690815 0.015999954 -0.048193045
0000c0 04 eb 91 3c 40 74 8a 3a e4 90 65 3c e5 99 34 bb
       0.01781226 0.001056321 0.014011595 -0.0027557549
0000d0 ca 61 80 bc a6 5a 8d bc 6b 72 47 bd a1 8a c2 3b
       -0.01567163 -0.017255139 -0.0486931 0.005936936
0000e0 f2 9d 19 3d 51 0b be 3c 6c 5d 5b bd de e0 45 bd
       0.037504144 0.023198755 -0.05355589 -0.048310153
0000f0 2a ea fa bc da 38 45 bd 7f 93 0e 3d 40 9b 6c ba
       -0.030629236 -0.04814992 0.034808632 -0.00090258196
000100 60 c0 70 3c 4d 46 04 3d e4 65 ff bc c6 ec a3 3c
       0.014694303 0.032293607 -0.031176515 0.020010363
000110 69 60 e8 3b d3 38 47 bd c0 7b d6 ba 83 7c 48 3c
       0.007091571 -0.048638176 -0.0016363785 0.012236717
000120 94 fe e4 bc bf 00 17 bd 04 51 27 bc 5d e1 80 3b
       -0.027953424 -0.036865946 -0.010212187 0.0039331154
000130 7d e2 39 3d 70 00 40 3b c8 0f 19 bd aa 4d ee bc
       0.04538201 0.0029297136 -0.037368566 -0.029089767
000140 60 f9 f6 3b 65 15 10 3d 28 b2 24 bd 23 37 97 3c
       0.007537052 0.035176653 -0.040208966 0.018458908
000150 2a 6c 94 3c 7d db 6b bd bf 22 4d 3d 68 cd 89 bc
       0.018117983 -0.057582367 0.050081965 -0.016821578
000160 47 08 ff bb 83 32 25 3d 4e 70 91 3c d2 06 4f 3d
       -0.007782969 0.040331375 0.017753746 0.050543614
000170 ea e3 0a 3d 39 07 ee bb 32 c0 59 3d 2c ac 30 bc
       0.033908762 -0.0072640446 0.053161807 -0.0107832365
000180 9a 86 fa 3c 2c a5 f0 3c 0c 08 58 3c 51 c7 07 bd
       0.030581761 0.029375635 0.013185512 -0.033149067
000190 bd 54 29 3d e7 f0 2d 3d f8 4b f6 3b 75 3b 3d 3d
       0.04134058 0.04246607 0.0075163804 0.04619928
0001a0 10 e0 9a 3c 84 f3 90 bc 6f 93 9b 3c 37 be c5 bc
       0.01890567 -0.017694242 0.0189912 -0.024138553
0001b0 06 e9 cb 3c 8b f3 e9 3c 21 2a 47 3d 95 e0 09 bd
       0.024891388 0.028558513 0.04862416 -0.033661444
0001c0 5c 76 26 3c d2 88 d2 bb 48 79 ea 3b bd 2b 08 3d
       0.010160055 -0.0064250017 0.007155571 0.033244837
0001d0 b3 af f8 bc cd df 2c 3d 19 9d 17 3c fb d5 0f bd
       -0.030357217 0.04220562 0.009253764 -0.035116177
0001e0 25 e0 bc bc 7b 66 78 bc 05 e9 79 bc 07 cb f3 bc
       -0.0230561 -0.015161152 -0.01525331 -0.029759897
0001f0 52 f0 30 3d 90 d6 98 bc d9 f4 14 3d 7d cf f3 3c
       0.043197937 -0.018656999 0.036366317 0.029762024

fc2.weight f4 [64, 128]
000000 26 0b 4c bd b1 61 9f bd 55 bb 0a 3d d4 c8 ae 3c
       -0.04981532 -0.07782305 0.03387006 0.021335997
000010 4e 5d 74 bd 24 2f d0 bc 1c d9 a8 bd 88 6e 06 bc
       -0.059659295 -0.025413103 -0.08244535 -0.008205064
000020 40 4d 00 3d 06 21 4e bd 74 94 78 bd 6a 87 a4 3d
       0.03132367 -0.050324462 -0.06068845 0.08033641
000030 90 a4 2f 3d 3d da 4f 3c 31 31 6f 3d 49 31 1e 3d
       0.04288155 0.012686309 0.058396522 0.03862122
000040 70 0a ab bc fe fd 00 3d a6 51 3c bd 80 d9 5b 3a
       -0.020879 0.031492226 -0.045976304 0.0008386597
000050 f0 1b d1 bc 01 10 88 3d a0 4f 7c 3d 46 89 7e bd
       -0.025526017 0.066436775 0.061599374 -0.062142633
000060 7b 20 43 bd b6 b9 1a bd 3c f8 9e bd 7b c1 5c 3c
       -0.047638398 -0.037774764 -0.07762191 0.013473864
000070 73 36 9b 3d 7d 1d b4 3c e0 79 4b 3c f9 6a 84 bd
       0.07578745 0.021986717 0.012419194 -0.06465716
000080 74 2e 87 bc 60 19 56 3b dc 99 0b 3d 95 2a 3b bd
       -0.016501643 0.0032668933 0.03408228 -0.045694906
000090 c3 fd 70 3c 12 93 32 bd 2a db 32 3d 78 36 8c bd
       0.014708939 -0.04359729 0.043666042 -0.068463266
0000a0 2a 99 7d bd dd a9 08 3d cd 8d a9 3d 16 1c 52 3c
       -0.061913647 0.03336512 0.082789995 0.012824079
0000b0 eb a7 bb bc 74 ea 28 bd c2 25 6d bd 30 e4 f0 3b
       -0.022907218 -0.041239217 -0.057897337 0.007351421
0000c0 b8 2b c9 3b 66 0d 17 3d 60 04 61 bc aa b6 f9 3c
       0.006139245 0.036878012 -0.013733953 0.030482609
0000d0 6e 60 2d bd 2e fc 1b 3d b8 b4 16 bd 44 68 84 3d
       -0.04232829 0.038082294 -0.03679344 0.064651996
0000e0 99 c8 9b bd b3 1d 0b 3b b8 52 98 bd c6 1b db bc
       -0.0760662 0.002122742 -0.07437652 -0.026746642
0000f0 76 5d 68 3d af b1 35 3c 72 e1 e0 bb 00 df a2 3c
       0.056729756 0.011089726 -0.0068628127 0.019881725
000100 27 4b 04 bd 48 cf 20 bd 38 02 85 3c a6 e2 ae 3d
       -0.032298233 -0.03926018 0.01623641 0.085393235
000110 cb 29 8d 3b 0e a7 d4 bc 72 f7 78 bc 6e ee 00 bd
       0.0043079606 -0.025958564 -0.015195714 -0.031477384
000120 82 eb 9f 3d 71 7a b9 bd cc 62 83 bc 46 2a 16 bd
       0.078085914 -0.09056557 -0.016038321 -0.03666141
000130 0e c0 4c 3d aa 9b 3a 3d 4a 97 1f 3d 0d 05 9f 3c
       0.049987845 0.04555861 0.03896264 0.019411588
000140 02 ea a2 bd 4e c4 32 3c bc ff fb bc 41 71 27 3d
       -0.0795479 0.0109110605 -0.030761592 0.04087949
000150 9f 0f 96 3d 17 af a6 bd 90 aa 83 3b 20 d1 20 bb
       0.07327198 -0.081388645 0.0040181354 -0.002453871
000160 e5 03 58 3d f9 7e 8a 3d 1a d6 00 3d da a6 7c 3d
       0.05273809 0.06762499 0.031454183 0.06168256
000170 fc ae 0e 3c 6b a7 ae bd dc 57 63 bd a2 e3 06 3d
       0.008708712 -0.08528026 -0.05550371 0.03293193
000180 8c 76 9c bd ca e1 a6 bd a0 13 7c bd 76 a6 a0 bd
       -0.076397985 -0.081485346 -0.061542153 -0.0784425
000190 3f 5f 90 3d 5d 89 73 3d 28 b7 b1 bd 2d 6a 0b bd
       0.07049417 0.05945717 -0.086775124 -0.034036804
0001a0 55 ab a8 bd 2a fb 21 bd 26 1d b3 3c 2d 97 b4 3c
       -0.08235804 -0.03954617 0.021864485 0.022044742
0001b0 03 c1 9f 3c b9 4e 9a 3d bc ff d1 bc 95 99 42 3b
       0.019501215 0.075345464 -0.025634639 0.0029693593
0001c0 f0 53 4e bd 4f 01 66 3d 22 b7 79 3d 97 45 a8 3d
       -0.050373018 0.05615359 0.060965665 0.08216398
0001d0 44 87 6d 3d 9c b9 c6 3c a7 5d a0 3b b5 54 6c 3d
       0.057990327 0.024258427 0.0048939767 0.05769797
0001e0 3e 0a 83 bd ef b8 f1 bb 33 12 11 bd 30 b6 be bb
       -0.06398438 -0.007376782 -0.035417747 -0.0058200583
0001f0 28 e7 7b bd 39 4a 9f 3b 8d c8 94 3c ad db 5b 3d
       -0.061499745 0.004861143 0.018162036 0.053676296
000200 bd 58 02 3d b3 20 03 bd f0 d8 41 3d 21 59 88 3d
       0.03182291 -0.032013606 0.04732603 0.06657625
000210 b8 a2 48 bc 82 1b 11 3d e6 7a f9 bc 74 e7 0d 3d
       -0.012245826 0.035426624 -0.03045411 0.03464456
000220 f4 fa f4 bc 84 63 72 bd 7d 00 54 bb 7e 41 90 bc
       -0.02990482 -0.059176937 -0.0032348924 -0.017609354
000230 db e5 89 bd 42 d6 33 3d 42 20 ae bd 53 0e 98 bd
       -0.067332946 0.043905504 -0.085022464 -0.07424607
000240 60 e9 a2 3c 69 dd 05 bb 28 36 7b bd 8e b1 38 3d
       0.019886672 -0.002042616 -0.061330944 0.045091204
000250 64 8c 98 3d 44 bc d7 3c 65 43 f5 bc 9d cd a2 bd
       0.074486524 0.02633489 -0.029939363 -0.07949374
000260 ae b4 94 3d b3 89 97 3d 33 27 9e 3d a0 90 75 3d
       0.072610244 0.07399311 0.077223204 0.05995238
000270 cd 66 a2 3d a8 6d e0 bc 0c 9e 96 3c ac 6b c1 bc
       0.07929764 -0.027396038 0.01838591 -0.023610912
000280 e0 25 0c 3b e9 f5 69 bd b0 36 0f 3d 32 2b 3f 3d
       0.002138488 -0.057119284 0.034964263 0.046672054
000290 8a 0c 39 bd 5e 3b 92 3d aa b6 24 3d b3 ad 48 3b
       -0.045177974 0.0714023 0.040213265 0.003062111
0002a0 18 5c 4d 3c 5a 8b f4 3b 06 aa b2 bd b9 79 2e 3d
       0.012534164 0.007462901 -0.08723836 0.042596553
0002b0 9f 9d 7c 3d 5f b8 ef bc 5f 4c 89 3d 70 da 7e 3c
       0.061673757 -0.02926272 0.0670402 0.015555009
0002c0 36 da 4e bb 10 50 0a bd e4 de b1 bc ff 51 20 bd
       -0.003156317 -0.03376776 -0.021712728 -0.039140698
0002d0 29 c2 0c bd b4 9d 77 bd a6 ab 63 3d 27 9e d0 bd
       -0.034364853 -0.06045313 0.05558362 -0.10186415
0002e0 db 08 8e bb 05 a6 7c 3d c8 ef a9 bd f3 bc 67 bd
       -0.0043345517 0.061681766 -0.08297688 -0.05657668
0002f0 78 7b e2 3c 7c 12 b2 bd f7 39 1b bd 85 97 92 3d
       0.027646765 -0.08694932 -0.037897076 0.07157806
000300 02 8e 7b bd d1 87 a1 3d 7d b2 aa 3d dd 55 14 3d
       -0.061414726 0.07887233 0.08334825 0.036214698
000310 12 b5 bc bc a2 11 ab bd 74 96 75 3d 51 37 4d 3d
       -0.02303556 -0.083529726 0.059957936 0.050101582
000320 c0 d0 42 3c f0 44 66 bc e2 0a 21 3d 1a 33 97 3b
       0.01189059 -0.014054522 0.03931702 0.004614246
000330 20 56 8d bc da 5c 9d bd a0 c9 bb 3c 9a 26 a4 bb
       -0.017252982 -0.07683726 0.02292329 -0.0050094845
000340 fa 68 46 3d 93 42 05 3d 28 ca 4e 3c 79 13 a8 bd
       0.048439957 0.032534193 0.01262144 -0.08206839
000350 20 7f 37 3c 67 5d 60 3c d0 cd e8 bc 6d 7e 1c bd
       0.011199743 0.013694144 -0.028418452 -0.038206507
000360 d3 73 ef 3c ff f2 e8 3c 2d 6c ad 3d a2 d8 bc bd
       0.029230034 0.028436182 0.084678985 -0.09221007
000370 9f 97 65 3c 29 c2 69 ba 25 36 b7 bc 97 32 9c 3d
       0.0140132 -0.0008917177 -0.022364685 0.07626837
000380 28 f1 31 3c f1 87 bf bd 00 8a a7 39 ab 5f 53 3d
       0.010860719 -0.09352101 0.0003195554 0.051604908
000390 48 5f 9c 3c da 2d a4 bd e2 39 43 3d 00 31 83 3b
       0.019088402 -0.08016558 0.047662623 0.004003644
0003a0 61 e0 88 3d 01 fa b3 bd 7e 90 d9 3c 3b 46 87 bc
       0.06683422 -0.08787919 0.026558157 -0.01651298
0003b0 52 76 c3 bd 1a c4 42 3d 84 83 6f bd 3d 10 62 3d
       -0.09544052 0.0475503 -0.058475032 0.055191267
0003c0 25 53 a5 3d e2 d4 40 3d eb e5 07 bd 87 6a 59 bd
       0.08072499 0.04707802 -0.03317825 -0.053080108
0003d0 6a 42 c5 3c f8 39 63 3c 08 a2 18 bd 67 ed bd bd
       0.02407952 0.013868801 -0.0372639 -0.092737965
0003e0 fc 98 65 3d 9d 49 2c 3d cc 06 be 3c 0e c5 1a 3d
       0.0560541 0.04206239 0.0231966 0.037785582
0003f0 4d 8e a5 bd 07 70 49 3d d2 42 a3 bd 3c e1 4e bd
       -0.08083782 0.049179103 -0.07971729 -0.05050777

fc2.bias f4 [64]
000000 54 3e 52 bd 53 d7 58 bd 5a 17 a5 3b 44 6c 49 bd
       -0.051328972 -0.052939724 0.005038184 -0.049175516
000010 d0 aa 14 3d a2 8b 60 3d d5 ac 14 3d 64 a9 92 3d
       0.036295712 0.054820664 0.036297638 0.07161215
000020 8c 8b df ba 4d 63 d4 bc e1 26 2a bd 75 40 98 3d
       -0.0017055138 -0.025926257 -0.041540984 0.07434169
000030 72 b6 68 bd ba e4 54 bd 13 0a a0 3d dd 97 0a bd
       -0.05681462 -0.051975943 0.078144215 -0.033836234
000040 a1 29 c1 bd e8 b6 84 bd f1 b0 95 3d 35 c0 bf bb
       -0.09431768 -0.06480199 0.073091395 -0.0058517703
000050 03 04 7b 3c d7 f6 51 bd 82 e8 d3 3c e1 e3 13 3d
       0.015320781 -0.051260795 0.025867704 0.036105994
000060 5f 6a 94 bd 69 45 17 bd ec f7 3e bd 01 ce 40 3d
       -0.07246851 -0.03693143 -0.046623155 0.04707146
000070 07 27 0e bd b4 fb 83 bd a0 42 54 3d d1 23 9a bc
       -0.034705188 -0.06444493 0.05182135 -0.018815907
000080 86 a1 18 3d 56 53 36 bd b9 47 b7 bb cb df b6 bd
       0.037263416 -0.04451307 -0.005593267 -0.08929404
000090 04 72 83 3d 9d 2b 20 bd 50 b7 dd bc 66 33 eb bb
       0.06418231 -0.039104093 -0.02706495 -0.007177758
0000a0 1b 4c 0f 3d ce cf 96 bd b2 6a 8f 3d a8 93 70 3d
       0.03498469 -0.07363854 0.070027724 0.058734566
0000b0 73 0e 84 3d ca 15 9d 3d 10 02 01 3c a5 cb 3f bc
       0.064480685 0.076701716 0.007874027 -0.0117062675
0000c0 64 f3 91 3d e9 c5 23 3d 4b f5 00 bd 1a c6 a9 3c
       0.07126501 0.039983664 -0.03148393 0.020724345
0000d0 2f fe b4 bc 92 76 6c 3d d5 55 3e bd 43 87 fa bc
       -0.02209386 0.057730265 -0.046468575 -0.030582076
0000e0 8e 3f de bc 2f e7 2a 3d cd b8 97 bc 79 9b 8e 3c
       -0.027129915 0.04172438 -0.018520737 0.01740812
0000f0 41 33 14 bd 0d 20 a4 bc fe 63 7c bd 53 10 5c 3b
       -0.036181692 -0.020034814 -0.061618797 0.0033579066

fc3.weight f4 [32, 64]
000000 a8 55 9c bb 29 50 33 3d 23 9b 0d 3e 1a b9 81 3d
       -0.004770953 0.04377762 0.13828711 0.063341334
000010 df a6 01 3d 9b 5b 98 3c 3e 71 05 3b d6 6c c8 bc
       0.03165328 0.018598368 0.0020361687 -0.02446596
000020 5d 06 0b bd aa 80 41 bd c6 9d b6 3d cf 0f 36 3d
       -0.033941615 -0.047241844 0.08916812 0.04444867
000030 77 4c 79 3b 3e c2 fe bc 6f e0 a3 3d 64 9e 6c bd
       0.0038039961 -0.031098481 0.08001792 -0.05776824
000040 95 dd 75 bd 5a 40 4d bd 8d b9 be 3d 11 6b cb 3d
       -0.06002577 -0.0501102 0.09312735 0.09932531
000050 ae ac d8 bd 11 05 22 bd f9 e8 d7 3d 5f 75 9a bd
       -0.10579811 -0.039555613 0.10542483 -0.07541918
000060 b2 ca b2 bc 18 96 48 bd 44 06 78 3d c0 d0 9e 3d
       -0.021825168 -0.048971266 0.06055285 0.0775466
000070 d7 eb af 3d a5 2a dd 3d 60 ad b0 3d f9 42 66 3d
       0.08589905 0.107991494 0.08626819 0.056216214
000080 b7 c5 b4 bd 84 53 05 3d e3 cf 7f bc c4 8f c9 bd
       -0.088267736 0.03255035 -0.015613529 -0.09841874
000090 83 bb 81 3d 27 93 1d bd f9 d0 08 3d 6f d1 6c bd
       0.06334593 -0.038470414 0.033402417 -0.05781692
0000a0 83 9e a2 bc 50 b3 0a bc f3 5a 9d bd 0d 23 b2 3d
       -0.019850975 -0.008465603 -0.07683363 0.08698092
0000b0 af 2c cd 3d 03 23 e8 bd 8d 03 d2 bd b5 c6 30 bc
       0.10018288 -0.11334803 -0.102545835 -0.010789563
0000c0 8c 8f 08 3c 2d 47 79 3d 69 d9 88 bd 6d ce 05 3e
       0.0083350055 0.060858894 -0.06682093 0.13067026
0000d0 fe 74 13 3d 82 1b 8f bc f7 8b dd 3d 87 99 71 3d
       0.036000244 -0.017469171 0.10817712 0.058984306
0000e0 8b ed ac 3d aa 1e ab bd 76 b1 e4 bd 43 32 a0 3d
       0.08443745 -0.08355458 -0.111666605 0.07822087
0000f0 55 89 eb 3c ff 3a e7 bd 08 55 fe 3d 6a 1e 2e bc
       0.028752008 -0.112905495 0.12418562 -0.010627368
000100 ea e7 02 3d af 3e 91 3a 33 98 8b bd 5e bb e4 bd
       0.03195945 0.0011081303 -0.06816139 -0.1116855
000110 58 52 a9 3d 93 a5 9f 3d 8f c1 ed 3c 16 7f 95 bc
       0.08267659 0.07795253 0.02902296 -0.018249076
000120 2d df 1e 3d 92 e0 5e 3d d9 54 c5 3d 62 34 a8 3b
       0.038787056 0.054413386 0.09635324 0.0051331976
000130 5f 5d b6 bc 96 e9 dc bd 06 dd dc bd a5 91 e3 bd
       -0.02226132 -0.107867405 -0.107843444 -0.11111764
000140 1a dd d0 bc 98 18 75 bd 20 36 de 3d fb 1a ab bd
       -0.025496054 -0.059837908 0.10850167 -0.083547555
000150 25 a4 b8 bc 6f 6a 08 3d 44 ec 44 bd ee 8c c3 bc
       -0.022539208 0.033304628 -0.048076883 -0.023870911
000160 e1 9e 04 be 7c 66 2c 3c 0b 50 fb 3d 2a c0 ab bd
       -0.12951232 0.010522481 0.12271126 -0.08386262
000170 05 6c a6 bd e8 c7 5e bd e2 7a 4c bc dc f1 c6 bd
       -0.08126072 -0.054389864 -0.012480469 -0.097141
000180 63 87 b7 3c 7a 87 08 be a0 29 55 bd 1b ed 26 3d
       0.022403425 -0.1333293 -0.05204165 0.040753465
000190 9d 14 a7 3d 8e 34 c7 bd 27 bc d7 3d 14 c5 b2 bd
       0.081582285 -0.09726821 0.10533934 -0.08728996
0001a0 4a f7 d0 3d 2a 08 c0 bd dd 2b 99 bc a4 f9 ca bd
       0.10203417 -0.09376557 -0.018697673 -0.099108964
0001b0 8a bc 85 bd d0 3d 66 bd c1 d0 0c 3d 5c ea ad bd
       -0.065301016 -0.056211293 0.03437877 -0.08491966
0001c0 4c 7c 93 3b e2 b4 d2 bb 9a c6 e9 3d 9e a7 5c 3c
       0.0045009013 -0.0064302543 0.11414833 0.013467697
0001d0 c3 1a c5 bd 09 c2 69 bd 64 a3 cb bc 08 3f 91 3d
       -0.09624245 -0.057069812 -0.024858184 0.070921004
0001e0 60 0a ba 3d e6 b2 a3 bd 5a 61 b1 3b 85 8b a3 3d
       0.0908401 -0.079931065 0.0054132165 0.079855956
0001f0 50 92 fa bc 9c 34 01 3d e0 37 6e bd 4a 30 a8 bd
       -0.030587345 0.031544313 -0.058158755 -0.082123354
000200 88 6d c4 bd 88 b0 fd bc 0a 24 c4 bd 80 0c 4e bd
       -0.09591204 -0.030967966 -0.095771864 -0.05030489
000210 3b 84 6a bd 38 fe f5 3d 7b 80 b4 bd 1b 60 c4 3d
       -0.05725501 0.12011379 -0.08813568 0.09588643
000220 7c 7c 40 3d c7 7b 85 bc e2 e0 4c bd 80 48 b2 bd
       0.046993718 -0.016294373 -0.050019152 -0.087052345
000230 c1 d2 dd 3d 40 54 ae 3d 42 41 9b bd 8e 79 c7 3d
       0.10831214 0.08512163 -0.07580806 0.097399816
000240 c1 5d 49 bd 1a 06 85 3d 4e d9 19 bd a9 20 4d 3d
       -0.049161676 0.064953044 -0.037560754 0.050079975
000250 e9 db c2 bd 95 27 b1 bd fb e4 94 3d 96 e6 f6 bc
       -0.09514601 -0.08650128 0.07270237 -0.030139249
000260 55 48 2a 3d 42 d2 86 bd bb 85 cf 3d 8e 9e c5 bd
       0.041572887 -0.06583072 0.10132929 -0.096493825
000270 a3 73 b5 bc 1b 7a ce 3c 9a ac fc 3d d2 be df bd
       -0.022149866 0.025204709 0.12337609 -0.10925068
000280 28 77 61 3c 1c 77 00 3e 69 0d de bc d8 97 f3 bd
       0.013761319 0.12545437 -0.027106004 -0.11894196
000290 f9 3d 95 3d e4 d6 76 bd 9d a7 63 3d 46 0b 25 3d
       0.07287211 -0.06026353 0.05557977 0.040293954
0002a0 4c 2b d7 3d 47 d0 9c bc 66 6f 20 3d fa 65 ee 3d
       0.10506305 -0.019142283 0.039168738 0.11640544
0002b0 6f 66 c5 bd 6e 27 e4 3d 07 2d b3 3b 0c 8f 8a 3d
       -0.09638678 0.11140333 0.005468014 0.06765565
0002c0 a2 c7 9e bc 88 b2 97 3d 51 38 b6 bc 64 9b 91 bd
       -0.019382302 0.07407099 -0.02224365 -0.071097165
0002d0 69 4a 01 be c1 54 de bc 1f f5 ed 3c dc c1 f9 3d
       -0.12626041 -0.027140023 0.029047547 0.12195179
0002e0 36 7e 82 3b c9 7f da bc 9b f8 08 bc 6d d5 ce 3d
       0.0039823307 -0.02667226 -0.008360053 0.100993015
0002f0 1a f0 78 3d c7 44 a0 bc be cb b5 3d 22 f1 23 3d
       0.060775854 -0.019564046 0.08876751 0.040024884
000300 07 82 b5 bd d6 74 b0 3d a3 5d 8b 3d 0a da 6f bd
       -0.088626914 0.08616035 0.06804969 -0.058557548
000310 e2 6e c7 3d b0 35 8f bc 3f 4a ff bd 29 6e a2 3d
       0.09737946 -0.017481655 -0.12465333 0.07931168
000320 d5 4e 33 3b 28 e3 00 be 68 e5 a8 3d d7 18 ef bd
       0.002736022 -0.12586653 0.08246881 -0.1167466
000330 ed 90 dc bd 08 0c f1 bb 1e 32 e6 3b 5b 47 98 3d
       -0.1076983 -0.0073561706 0.0070250174 0.07435485
000340 bd e6 15 3c 52 64 52 3d c9 ad 74 3d c4 07 de bd
       0.009149251 0.051365204 0.059736047 -0.10841325
000350 1d 31 cc bd f5 11 cf bd 5e d6 45 3d db d3 fb bd
       -0.09970305 -0.10110847 0.04830014 -0.122962676
000360 37 a6 15 3d 09 05 3d bd 18 d3 8b 3d 28 c8 87 bd
       0.036535468 -0.04614738 0.06827372 -0.06629974
000370 c9 54 1e 3d 3d 8a 3d bd 43 a4 e4 3d 15 64 49 3d
       0.038655076 -0.046274412 0.11164143 0.04916771
000380 ea 70 db bd 26 71 c7 3d 4d 6c ad bd 32 50 8e bc
       -0.10714896 0.09738378 -0.08467922 -0.017372224
000390 43 74 13 bb 04 27 e9 bd ef ec 99 bd 29 12 9a 3c
       -0.0022499717 -0.11384395 -0.075158946 0.018807488
0003a0 8b 82 ae 3d b9 80 ac bd da 05 cb bb 3c f2 83 bd
       0.08520993 -0.084229894 -0.006195766 -0.06442687
0003b0 9d 0a 8a 3d 6a 68 39 3d 48 3a 4a bc eb 85 ad 3d
       0.067403056 0.045265593 -0.012342997 0.084728085
0003c0 f5 38 fb bd 94 ce ee bd 11 cd ee 3d 63 f4 ac 3d
       -0.12266723 -0.116604954 0.11660207 0.084450506
0003d0 97 0e 7a 3d ae 4e 9a bc 83 0b 59 3b c1 17 c4 3d
       0.06104907 -0.018836346 0.0033118434 0.09574843
0003e0 8c b5 d5 bd 7f e1 00 be 5b b4 36 3c 5a 50 09 bc
       -0.10435018 -0.1258602 0.0111513985 -0.008380974
0003f0 5c 66 4b bc 24 eb b5 3d d0 46 b4 3d 28 60 9d 3d
       -0.012414541 0.0888274 0.08802569 0.07684356

fc3.bias f4 [32]
000000 f5 b6 91 bd cb 6a d5 bd df 90 83 3d c7 13 a6 bd
       -0.071149744 -0.1042076 0.06424116 -0.08109241
000010 e8 fb 23 bd 0e 48 93 3d 2c f2 e2 bb bd b1 e6 bc
       -0.04003516 0.07191478 -0.006925842 -0.028160924
000020 c1 8d d3 3d eb 08 1b bd b3 01 b3 3d 8d b4 31 bd
       0.10329772 -0.0378503 0.087405585 -0.043385077
000030 da df 5d 3d fc 4a 67 bc 1f 64 df 3b be 38 c1 3d
       0.05416856 -0.014116999 0.0068173553 0.09434651
000040 68 f3 a1 bd d5 46 de 3d b1 e6 2a bd ba 9c 8a bd
       -0.07907754 0.10853354 -0.04172391 -0.067681745
000050 d6 12 d3 bd 99 f9 be bd 7e eb e1 3c 87 90 bf bd
       -0.10306327 -0.09324951 0.027578112 -0.09353738
000060 a6 9e f0 bd 82 20 bb bd d3 bc cf 3d 47 91 00 3e
       -0.1174901 -0.0913706 0.10143437 0.12555419
000070 6e cb fd 3d c6 2b 9b bd 5d c3 17 bd 5a ff 98 3d
       0.12392317 -0.075767085 -0.037051547 0.074705794

fc4.weight f4 [1, 32]
000000 42 89 db 3c 79 8d fa bc 29 09 28 3e 2c 53 09 be
       0.026798848 -0.030585038 0.16409744 -0.13410634
000010 a2 ac 17 be a0 9a ff 3d fb 68 25 bd 2d 71 84 3b
       -0.14811948 0.12480664 -0.04038332 0.004041812
000020 f2 a2 d9 bd cb 65 25 3d 33 cb 13 3d 8a f0 3d 3d
       -0.106267825 0.04038028 0.036082458 0.046371974
000030 a9 c5 1d 3d 7c c3 28 3d f3 1b d5 bd e6 0d 7b bd
       0.03851858 0.041202053 -0.104057215 -0.06129255
000040 7c ad 03 be 3f b8 67 3d 8a 9b 05 3d eb dd f9 3d
       -0.12859148 0.056572195 0.032619037 0.122005306
000050 2e 91 ed 3b b8 b4 c3 bc fb cb 14 be c9 d5 17 be
       0.007249973 -0.023889884 -0.14530937 -0.14827646
000060 74 01 f0 ba a8 13 1a be c6 68 f5 bd c6 73 04 3e
       -0.001831098 -0.15046561 -0.119828746 0.12934789
000070 f0 d3 8e 3d ca d2 bf bc 37 bb 0a 3d 9f b9 a3 bd
       0.069740176 -0.023415942 0.03386995 -0.07994389
