src/model/models/98/cnn_regressor_98.pt (torch, 247371 bytes, 7 tensors)

fc1.weight f4 [128, 394]
0	0xbb01fcd0	-0.0019834526
1	0xbd3e9405	-0.04652788
2	0x3d0dd8c4	0.034630552
3	0xbbabda06	-0.0052444963
4	0x3ace80f2	0.0015754981
5	0xbd30ab64	-0.0431322
6	0xbcd4473a	-0.02591287
7	0xbd5507a7	-0.05200925
8	0x3a1ae648	0.00059089484
9	0xbce14fb3	-0.027503824
10	0x3c2d951c	0.0105946325
11	0xbbb1f9ed	-0.005431405
12	0x3d278af6	0.040904008
13	0x3cf54223	0.029938763
14	0x3cfb4be5	0.030675838
15	0xbb9369c7	-0.0044986936
16	0x3ca03d18	0.019560382
17	0xbce03fcb	-0.027374169
18	0x3babedc6	0.0052468507
19	0xbd4029f9	-0.04691503
20	0xbcd9b90d	-0.026577497
21	0xbd1272dc	-0.03575407
22	0x3d307f6b	0.043090265
23	0xbc0fe0a0	-0.008781582
24	0xbd35fd94	-0.044431284
25	0xbba85eac	-0.005138239
26	0xbd0f17b4	-0.034934714
27	0x3be541db	0.006996376
28	0xbd382574	-0.044957593
29	0xbc50bbc0	-0.012740076
30	0x3d00cb25	0.031443734
31	0xbb1e19b6	-0.0024124212
32	0xbcc85bad	-0.024457777
33	0xbb3d2f44	-0.0028867284
34	0xbc3ff64f	-0.011716439
35	0xb9df9e2f	-0.0004265173
36	0xbc35d57b	-0.011098261
37	0xbd62a571	-0.05533356
38	0x3baf3bd1	0.005347707
39	0x3d1cc5e7	0.038274672
40	0xbd4e0448	-0.05029705
41	0xbabdaa2c	-0.0014470271
42	0x3d2c095e	0.04200112
43	0x3c250d83	0.010074022
44	0x3d179b32	0.03701324
45	0xbcae1888	-0.021251932
46	0xbd5974e1	-0.05308998
47	0xbd5a3fba	-0.05328343
48	0xbcde6c25	-0.027151177
49	0x3b524a21	0.0032087641
50	0x3ba98fd4	0.0051746164
51	0xbd2761bb	-0.040864687
52	0x3d2ace6e	0.041700773
53	0x3890e3f3	6.908914e-05
54	0x3d09dcbc	0.033657774
55	0x3c184ca7	0.009295619
56	0xbcd34600	-0.025790215
57	0xbaf246e1	-0.0018484258
58	0x3beb96ff	0.007189631
59	0x3c6d11c7	0.0144695705
60	0x3b80f829	0.003935833
61	0x3c63e7f1	0.01391028
62	0xbbe0af6d	-0.00685685
63	0x3cb86eff	0.022513865
64	0x3c5c22d5	0.013436039
65	0xbccec76f	-0.025241582
66	0xbcd2829b	-0.025697043
67	0x3d1030eb	0.0352029
68	0xbd10af0a	-0.03532318
69	0xbc8ee715	-0.017444173
70	0x3c37f7b9	0.011228495
71	0xbd503a74	-0.050836995
72	0xbd329bd5	-0.043605644
73	0x3d2bd958	0.041955322
74	0x3cc618eb	0.024181804
75	0xbd557095	-0.05210932
76	0xbcac9d7f	-0.021071194
77	0xbd0dbbec	-0.034603044
78	0x39c18f3b	0.00036918544
79	0xbc7256ab	-0.014791171
80	0x3ca6df75	0.020370224
81	0xbd3b038c	-0.04565768
82	0x3c97b0cc	0.01851692
83	0xbd3fc980	-0.046823025
84	0xbd3f6de0	-0.046735644
85	0x3bc166c3	0.0059021427
86	0x3c4e4704	0.012590174
87	0x3b7c478b	0.0038494791
88	0xbc162942	-0.00916511
89	0x3d2a0111	0.041504923
90	0xbd4fe679	-0.050756905
91	0xbbc46f07	-0.005994681
92	0x3b8586ce	0.004074908
93	0xbc93822f	-0.018006412
94	0xbd171662	-0.03688658
95	0xbc5f62cc	-0.013634395
96	0xbd24e60a	-0.040258445
97	0x3c5436ff	0.012952565
98	0xbd2d3373	-0.042285394
99	0xbd28b803	-0.041191112
100	0xbd66d2a4	-0.056353226
101	0xbd59249b	-0.053013425
102	0x3d2add26	0.04171481
103	0xbc4d6cc5	-0.01253814
104	0xbc6e70fa	-0.014553303
105	0xbcaf10a4	-0.02137024
106	0xbc82eedd	-0.01598304
107	0x3d226767	0.039649393
108	0xbd0dc2a8	-0.034609467
109	0xbc191324	-0.009342942
110	0x3cdbbf38	0.026824579
111	0x3c6ee533	0.014581013
112	0xbd248284	-0.040163532
113	0x3cf22cc0	0.029562354
114	0x3c4c245d	0.012459842
115	0xbd60453c	-0.054753527
116	0x3aeef077	0.0018229623
117	0xbcb017c5	-0.02149571
118	0xbcf18e75	-0.029486874
119	0x3bd6f996	0.0065605147
120	0x3c831044	0.015998967
121	0xbd07a807	-0.033119228
122	0xbb84b0d7	-0.0040494013
123	0x3d0e3ce6	0.034726046
124	0xbcba2ccb	-0.022726437
125	0xbc3de064	-0.011589143
126	0x3cca45fb	0.024691572
127	0x3b8e4e68	0.004342843
128	0xbd1479c1	-0.036248926
129	0x3bf28479	0.007401046
130	0xbd23fde7	-0.040037062
131	0xbd28f740	-0.04125142
132	0x3d112bf6	0.035442315
133	0x3bdeedb7	0.00680324
134	0x3d02bb84	0.03191711
135	0xbd632012	-0.055450507
136	0xbd1a7187	-0.037705924
137	0xbd40ddfc	-0.0470867
138	0x3d15a476	0.036533795
139	0xbd0dba31	-0.034601394
140	0xbd62b9d9	-0.05535302
141	0xbc374b35	-0.011187364
142	0xbd036336	-0.032077037
143	0xbd16d097	-0.03682002
144	0x3c2de6c1	0.010614098
145	0xbd12d8c9	-0.035851274
146	0x3c2902e1	0.010315628
147	0xbae7b192	-0.0017676821
148	0x3d0d0e92	0.034437723
149	0x3d26af8f	0.04069477
150	0xbce743fa	-0.028230656
151	0x3b8d4ef0	0.0043123886
152	0x3cd71c7f	0.026258705
153	0xbd404ad1	-0.04694635
154	0x3b2dc265	0.0026513573
155	0xbbf8d5d7	-0.007593851
156	0x3cf0319c	0.02932053
157	0xbbc7f520	-0.006102219
158	0x3c233751	0.009961919
159	0xbd02abad	-0.031902004
160	0x3a2d077f	0.0006600543
161	0x3c1bbd8d	0.009505642
162	0xbc84a1ca	-0.016190428
163	0xbd141da0	-0.036161065
164	0xbceac233	-0.028657055
165	0xbcc2a43a	-0.02375995
166	0x3c1ce4bc	0.009576019
167	0xbcc58c62	-0.024114791
168	0x3d179803	0.037010204
169	0xba802073	-0.0009775296
170	0xbce22c23	-0.027608937
171	0xbbd6817c	-0.0065461975
172	0xbbeca33f	-0.007221609
173	0xbc6aded3	-0.014335352
174	0xbd5c8280	-0.053835392
175	0x3c5c621a	0.013451124
176	0x3c8e25c2	0.017351989
177	0xbd1c81a6	-0.03820958
178	0x3c44640a	0.011986742
179	0x3b6d6424	0.0036223019
180	0x3d04ad4b	0.032391828
181	0xbca6751a	-0.02031951
182	0xbd594896	-0.05304774
183	0x3cf6d505	0.030130873
184	0x3b6aad00	0.0035808682
185	0x3cecce8c	0.028907083
186	0x3c3588bc	0.011079963
187	0xbc8728b0	-0.016498893
188	0xbd149f99	-0.036285017
189	0x3d0fef3c	0.03514026
190	0xbc51e011	-0.012809769
191	0xbccb1392	-0.024789605
192	0xbd1a632f	-0.037692245
193	0xbca71ce6	-0.020399522
194	0xbd3407d2	-0.04395277
195	0x3c0f03ec	0.008728962
196	0xbc5a89fc	-0.013338562
197	0x3d11c107	0.035584476
198	0xbcb0e335	-0.021592716
199	0xbca0a7b3	-0.019611215
200	0x3d29c048	0.04144314
201	0xbd2d6a69	-0.04233781
202	0xbc81d7b5	-0.015849927
203	0xbc2810fe	-0.0102579575
204	0x3c2bb873	0.010480988
205	0xbba7edd8	-0.0051247887
206	0x3caa5a37	0.02079497
207	0x3cf6bdf8	0.030119881
208	0xbc6284b1	-0.013825581
209	0x3c121f90	0.008918658
210	0xbd572012	-0.05252082
211	0xbb925e81	-0.004466832
212	0xbd448c9e	-0.047985666
213	0xb9cef1a9	-0.00039471433
214	0xbd64016a	-0.05566541
215	0xbd4a3771	-0.04936928
216	0xbc86eb08	-0.016469494
217	0xbb715f30	-0.0036830418
218	0xbd00d7c5	-0.031455774
219	0xbce4be55	-0.027922789
220	0xbd54d357	-0.051959362
221	0x3bb7c524	0.005608218
222	0x3c903f78	0.01760839
223	0xbd337e58	-0.043821663
224	0xbb8fbb74	-0.00438636
225	0xbcff372b	-0.031154236
226	0x3d131d04	0.035916343
227	0xbd539835	-0.051658828
228	0xbd092869	-0.033485804
229	0xbd436ee5	-0.04771318
230	0x3cece6c2	0.028918628
231	0x3c9490cc	0.01813545
232	0x3cdf0477	0.027223809
233	0x3cc65520	0.024210513
234	0xbd328605	-0.043584842
235	0xbd304859	-0.043037746
236	0xbcc58645	-0.024111876
237	0xbd4e4832	-0.05036182
238	0xbccb8048	-0.024841443
239	0xbd6d5cb5	-0.05794974
240	0x3b871ae4	0.0041230787
241	0xbcef7a65	-0.029233167
242	0xbd5c3940	-0.053765535
243	0xbd0d0907	-0.034432437
244	0xb9ebdbcb	-0.0004498645
245	0x3c1fc4ca	0.009751508
246	0xbc294175	-0.010330548
247	0xbc3c02d4	-0.011475284
248	0xbc8fe5dc	-0.01756566
249	0x3cfac556	0.030611675
250	0xbd6f1b07	-0.058375385
251	0x3d29ba56	0.04143747
252	0x3d126716	0.03574284
253	0xbcaa246f	-0.020769326
254	0xbd01434d	-0.031558324
255	0x3d07dbe9	0.033168707

fc1.bias f4 [128]
0	0xbcc6af6f	-0.024253575
1	0xbd4ea7fb	-0.050453167
2	0xbcb2d836	-0.021831613
3	0xbb3128f0	-0.0027032457
4	0x3cc8543e	0.024454232
5	0x3d0dd4e8	0.03462687
6	0x3d1729c7	0.036905076
7	0x3ca7ec6a	0.020498473
8	0xbd1aca29	-0.03779045
9	0x3d13d78a	0.036094226
10	0xbd61b62a	-0.055105366
11	0xbd0f2248	-0.034944803
12	0xbced9e6e	-0.02900621
13	0xbcdbac95	-0.026815692
14	0x3ce8dcab	0.028425535
15	0x3d2e4119	0.04254255
16	0xbd53a607	-0.051672008
17	0x3d116aa6	0.0355021
18	0x3d0413b1	0.03224534
19	0x3c50c3bc	0.012741979
20	0x3ca026f5	0.019549826
21	0xbc025d78	-0.007956855
22	0xbd23cca1	-0.03999007
23	0xbd5f0be1	-0.054454688
24	0x3c88fbea	0.016721684
25	0x3990cd7a	0.00027618912
26	0x3d2be541	0.04196668
27	0xbbd4ffdc	-0.0065002274
28	0x3d0aa052	0.0338443
29	0x3bcfc7f0	0.006340973
30	0x3bbe17ec	0.0058011916
31	0xbd5da978	-0.054116696
32	0x3cca072c	0.024661623
33	0xbd4cbcee	-0.049984865
34	0x3c0b6994	0.0085090585
35	0x3c5e78ec	0.013578635
36	0xbd64ced3	-0.055861305
37	0x3d2655ed	0.04060929
38	0xbc10bf70	-0.008834705
39	0x3ca98475	0.020693043
40	0x3cc6ea69	0.024281697
41	0x3b87d83b	0.0041456497
42	0xbca0f767	-0.01964922
43	0xbd54f90f	-0.051995333
44	0xbd28b20f	-0.041185435
45	0xbc6d610d	-0.014488471
46	0xbbcdfb58	-0.006286066
47	0xbd1d1eff	-0.03835964
48	0x3b97ef38	0.0046366714
49	0xbce497c2	-0.027904395
50	0xbd070c86	-0.032970928
51	0xbd3a14fa	-0.04543016
52	0xbbdf7138	-0.0068189166
53	0xbc3e485e	-0.011613933
54	0xbbd897a0	-0.006609872
55	0x3d1e7581	0.03868628
56	0xbc3fc9d1	-0.011705832
57	0x3d0a6e12	0.033796377
58	0xbc286ee1	-0.010280342
59	0x3bbac340	0.005699545
60	0x3d43ec31	0.04783267
61	0xbd496809	-0.04917148
62	0x3c7e2343	0.015511337
63	0xbd057c75	-0.032589395
64	0xbd39be92	-0.045347758
65	0x3cd52de6	0.026022863
66	0xbccef62e	-0.025263872
67	0xbd0fcb4c	-0.03510599
68	0xbb6463de	-0.0034849565
69	0xbd2e1c43	-0.04250742
70	0x3cfb1b59	0.030652689
71	0xbc768af2	-0.015047776
72	0x3bdaeacb	0.0066808215
73	0x3c96a5e6	0.018389653
74	0xbd57f5a6	-0.052724503
75	0xbd235f94	-0.039886072
76	0x3c08ac33	0.008341837
77	0xbd0466a8	-0.032324463
78	0xbcca2ec8	-0.02468051
79	0xbd42940f	-0.04750448
80	0xbd56c582	-0.052434452
81	0x3c62eaee	0.013849957
82	0xbcde38d1	-0.027126702
83	0xbc0a1ee3	-0.0084302155
84	0x3c24de2c	0.0100627355
85	0xbc0bc2dc	-0.008530345
86	0xbc84286a	-0.016132552
87	0xbd2f8c20	-0.042858243
88	0xbd53a2ac	-0.051668808
89	0x3c4d8354	0.012543518
90	0x3d06af95	0.03288229
91	0xbc6c69bf	-0.014429509
92	0x3c9c08ba	0.01904713
93	0xbb74aaa0	-0.0037333146
94	0x3c16dd90	0.009208098
95	0xbd1f8c23	-0.038952004
96	0x3cb4bafa	0.022061814
97	0x3d05a166	0.032624625
98	0xbce9101e	-0.028450068
99	0x3d17c1c1	0.037050012
100	0xbd0de294	-0.03463991
101	0x3d057f9d	0.032592405
102	0xbd3db15c	-0.04631172
103	0xbd04288b	-0.032265227
104	0xbb16c9fd	-0.0023008578
105	0xbca9f4ca	-0.020746607
106	0xbcd28caa	-0.02570184
107	0xbcdbabc6	-0.026815306
108	0xbcced36b	-0.025247296
109	0x3d094f23	0.033522736
110	0x3d18e1c3	0.03732468
111	0x3ce2a250	0.027665287
112	0x3d169797	0.03676566
113	0x3cff376d	0.031154359
114	0xbd3b3840	-0.04570794
115	0x3c0950e4	0.008381102
116	0xbd340fa6	-0.043960236
117	0xbd193d63	-0.03741206
118	0x3d2d4de2	0.042310603
119	0x3c5a2438	0.013314299
120	0x3d26e6b5	0.040747363
121	0xbd0c810a	-0.03430275
122	0xbbf1e7d0	-0.0073823705
123	0xbd324e52	-0.043531723
124	0xbd4be0ef	-0.04977506
125	0xbd512880	-0.051064014
126	0x3cdb4656	0.026766937
127	0x3c103a08	0.008802898

fc2.weight f4 [64, 128]
0	0xbc8da0f0	-0.017288655
1	0x3d76fd70	0.06030029
2	0xbd98dbc0	-0.07463789
3	0x3aa48580	0.0012551993
4	0xbc183c18	-0.009291671
5	0x3c1cf81a	0.009580636
6	0xbd83d593	-0.064372204
7	0x3d9531b9	0.072848745
8	0xbdb96986	-0.0905333
9	0x3d590faa	0.052993454
10	0x3c940a2a	0.018071253
11	0xbd03c5b7	-0.032170977
12	0x3d2624fc	0.040562615
13	0xbd442533	-0.04788704
14	0xbb10ebbf	-0.0022113172
15	0x3db1b193	0.08676448
16	0x3cbd13ee	0.023080792
17	0xbd0af8dc	-0.033928737
18	0x3d4ccfba	0.05000279
19	0x3d9cd42f	0.07657658
20	0xbd28c581	-0.04120398
21	0xbb5b2aa0	-0.0033442155
22	0xbd5b8889	-0.053597007
23	0xbd80fd2d	-0.062982894
24	0xbc764492	-0.015030997
25	0xbd458e93	-0.048231672
26	0x3d1786de	0.036993854
27	0x3c8b3fb2	0.016998146
28	0xbd9ff5c3	-0.07810547
29	0x3c604a18	0.01368954
30	0x3da2c055	0.07946841
31	0xbdb8a65e	-0.09016107
32	0x3d988706	0.07447629
33	0x3c6321a0	0.013862997
34	0x3bff7f90	0.007797189
35	0xbd959c29	-0.07305176
36	0x3d76ebc8	0.060283452
37	0x3c9ae1d0	0.018906504
38	0xbcd69046	-0.026191842
39	0xbd853d74	-0.06505862
40	0xbda8484c	-0.082169145
41	0xbd80a4e6	-0.06281452
42	0x3c252f85	0.01008213
43	0x3d067136	0.03282281
44	0xbd58e0e3	-0.052948844
45	0x3bbf27d2	0.0058336044
46	0x3d57ae56	0.052656494
47	0x3d41aee1	0.04728592
48	0xbb3ba6e0	-0.00286334
49	0x3d8d1b07	0.06889921
50	0x3c6b006f	0.014343365
51	0x3c84c571	0.016207429
52	0x3d8dccbb	0.06923815
53	0x3c5dd328	0.013539113
54	0x3d78172a	0.060568966
55	0xbd948959	-0.072527595
56	0x3c83a731	0.016070934
57	0x3d6e169b	0.058127027
58	0x3cbfe874	0.023426272
59	0xbdaad8e1	-0.083421476
60	0x3d994aec	0.07484993
61	0x3d190f31	0.037368003
62	0x3d65b348	0.05607918
63	0x3ca76d04	0.020437725
64	0x3d9a1e65	0.075253285
65	0x3d41887d	0.047249306
66	0xbcce0664	-0.025149532
67	0x3b9ac57a	0.004723248
68	0xbdb690d0	-0.089143395
69	0x3c01b988	0.007917769
70	0xbd872cbb	-0.066003285
71	0xbd6706ac	-0.056402847
72	0x3da00e7c	0.07815263
73	0xbc8a3a53	-0.016873514
74	0xbdba5e7c	-0.09100053
75	0xbd0b9555	-0.03407796
76	0x3ccd6ab1	0.025075288
77	0xbaea4040	-0.0017871931
78	0xbd2f8067	-0.042847063
79	0xbd835d9d	-0.0641434
80	0x3c83a42d	0.016069496
81	0x3d20c880	0.03925371
82	0x3c745448	0.014912672
83	0x3c9301cb	0.01794519
84	0x3cc80a7c	0.024419062
85	0x3d8bfb27	0.06835013
86	0x3cb9b648	0.022669926
87	0xbbff8896	-0.0077982647
88	0xbd26c037	-0.040710654
89	0xbd9b8e80	-0.07595539
90	0x3d02b92a	0.031914867
91	0xbc9389b7	-0.018010003
92	0xbda885ec	-0.082286686
93	0x3d838273	0.064213656
94	0x3d2b64a2	0.041844018
95	0x3b726527	0.003698656
96	0x3cf57ace	0.029965784
97	0x3c580a6d	0.013186079
98	0xbdbacc54	-0.09121004
99	0xbd0465bc	-0.032323584
100	0xbd8d7983	-0.06907942
101	0xbda50222	-0.080570474
102	0xbd9159fd	-0.07097242
103	0x3d282373	0.041049432
104	0xbd813f9f	-0.06310963
105	0xbbd4e7f0	-0.0064973757
106	0x3c732c7f	0.014842152
107	0xbd97f10f	-0.07419025
108	0xbd78f6cb	-0.060782235
109	0xbd49fd07	-0.04931357
110	0xbd1b8712	-0.03797061
111	0x3c9f89fd	0.019474978
112	0xbd0856f9	-0.03328607
113	0x3cd32467	0.025774194
114	0x3d9f65ff	0.07783126
115	0xbc5fe4f0	-0.013665423
116	0xbcb23e8c	-0.02175834
117	0x3cce7480	0.025202036
118	0xbd18c8d9	-0.03730092
119	0xbd7a7fd0	-0.061157048
120	0xbbf6f760	-0.0075368136
121	0x3d9dde35	0.07708398
122	0xbc068910	-0.008211389
123	0xbdb591d8	-0.08865708
124	0xbd9b4e85	-0.07583336
125	0x3b43dd12	0.0029886407
126	0xbd9e5281	-0.0773058
127	0x3cc02e30	0.023459524
128	0x3d6643be	0.056216948
129	0xbda27eba	-0.079343274
130	0x3c9f5e08	0.019454017
131	0x3d684caa	0.056713738
132	0xbd226c33	-0.039653968
133	0xbd33b731	-0.043875877
134	0xbbb87742	-0.005629451
135	0xbb981de0	-0.0046422333
136	0x3d625700	0.05525875
137	0xbced8473	-0.02899382
138	0xbdaca1fb	-0.08429333
139	0x3d4cae91	0.049971167
140	0xbda36f76	-0.07980244
141	0x3cf768b9	0.030201303
142	0x3bfef515	0.007780681
143	0x3d6c5be6	0.05770483
144	0xbd906169	-0.070498295
145	0xbd37a08f	-0.044830855
146	0x3c98b13b	0.018639198
147	0x3d3b4a2a	0.045725025
148	0x3d4aa3fe	0.0494728
149	0x3c430768	0.011903621
150	0xbd3c4d24	-0.045972005
151	0xbd346364	-0.0440401
152	0x3d9762ca	0.073918894
153	0x3da013b9	0.07816262
154	0x3d1ffbf6	0.039058648
155	0x3c9d9aae	0.019238796
156	0xbda7aef2	-0.08187665
157	0x3d6d86ba	0.057989813
158	0xbc16c134	-0.009201337
159	0x3daae7d7	0.08345001
160	0xbd794a13	-0.06086166
161	0x3cceba7c	0.025235407
162	0xbd4d07a7	-0.050056126
163	0x3d886d83	0.06661513
164	0x3d9198d6	0.07109229
165	0xbcb2e780	-0.021838903
166	0x3d7cee6a	0.061750807
167	0x3cef7642	0.029231194
168	0xbd5c5893	-0.05379541
169	0xbcb9f381	-0.02269912
170	0x3d08cdb3	0.033399295
171	0xbdb317db	-0.087447844
172	0x3d78c853	0.06073792
173	0xbd11eb5d	-0.03562485
174	0x3d60e35e	0.054904334
175	0xbda37363	-0.07980993
176	0xbcccf0e4	-0.02501721
177	0xbd086815	-0.033302385
178	0xbd087123	-0.03331102
179	0xbc63f275	-0.013912787
180	0xbd982324	-0.074285775
181	0x3d3123d6	0.043247066
182	0xbd82b90b	-0.063829504
183	0x3d7bee88	0.061506778
184	0x3b24d102	0.0025148992
185	0xbd6688e1	-0.05628288
186	0x3cd85dc0	0.026411891
187	0xbd08982a	-0.03334824
188	0xbd919aed	-0.07109628
189	0xbd3c9e0c	-0.046049163
190	0x3d9f7007	0.077850394
191	0x3cd184c8	0.02557601
192	0x3d0d37b8	0.034476966
193	0xbd96cf2d	-0.073637344
194	0xbce0a356	-0.027421635
195	0xbd326c6a	-0.043560423
196	0x3aede01f	0.0018148458
197	0xbca21fd4	-0.019790567
198	0x3c9b85e4	0.018984742
199	0xbdd8b2b5	-0.10580961
200	0xbcb82b4f	-0.022481589
201	0x3d7827b9	0.060584757
202	0x3d4703bb	0.048587542
203	0xbd9e47a5	-0.07728509
204	0x3d486312	0.048922606
205	0x3d8fbb1f	0.070181124
206	0x3c055358	0.0081375465
207	0x3da197f4	0.07890311
208	0x3d8498ca	0.06474455
209	0xbdb09130	-0.08621442
210	0x3daab2e7	0.08334904
211	0xbd049f88	-0.032378703
212	0x3d068148	0.032838136
213	0xbd42099f	-0.047372457
214	0x3cec9e70	0.028884143
215	0x3d2d29e1	0.042276267
216	0x3c6b423e	0.014359055
217	0x3c2a96a8	0.010411896
218	0xbcd2bb88	-0.025724187
219	0xbd5aeeac	-0.05345027
220	0xbd27f24a	-0.04100255
221	0x3da6c3f5	0.081428446
222	0xbd8e125c	-0.069370955
223	0x3d5e0782	0.05420638
224	0x3d4c2c2e	0.04984682
225	0xbd262542	-0.040562876
226	0x3d6488f6	0.05579468
227	0x3cbcbd08	0.023039356
228	0xbc277a79	-0.010222071
229	0x3b326840	0.0027222782
230	0x3e1b6105	0.15173729
231	0x3d0057ed	0.031333853
232	0x3d8bad23	0.068201326
233	0xbda8ad4f	-0.08236181
234	0xbc878ed2	-0.016547594
235	0xbd957b81	-0.07298947
236	0x3b83a1e0	0.0040170997
237	0xbc8d3888	-0.01723887
238	0xbcb8f799	-0.022579001
239	0xbd651394	-0.055926874
240	0xbd6ad55c	-0.05733238
241	0x3c12f36a	0.008969167
242	0xbc288d90	-0.010287657
243	0xbcc704fc	-0.024294369
244	0xbce2704d	-0.02764144
245	0xbcc3d497	-0.023905082
246	0xbd374d0d	-0.044751216
247	0xbd900464	-0.070320874
248	0xbc6d2740	-0.01447469
249	0x3d1a7a56	0.037714325
250	0x3d8baf79	0.06820578
251	0xbd58e952	-0.052956887
252	0x3da5daed	0.080983974
253	0xbd824daa	-0.063624695
254	0x3d199e9a	0.03750477
255	0xbd0d0ec8	-0.034437925

fc2.bias f4 [64]
0	0xbd0b5421	-0.03401578
1	0xbd842a2b	-0.064533554
2	0xbcc87274	-0.024468638
3	0xbd1c71db	-0.03819452
4	0x3d176c62	0.036968596
5	0x3d98edea	0.074672535
6	0xbdad4b36	-0.08461611
7	0x3b61d442	0.003445879
8	0xbc220554	-0.009888966
9	0xbd9b8420	-0.0759356
10	0xbd9680a5	-0.07348756
11	0xbcd1d0e1	-0.025612297
12	0xbc8e24ff	-0.017351625
13	0xbdb0c651	-0.08631576
14	0xbd4234fe	-0.04741382
15	0x3c2eccc6	0.010668939
16	0xbd23d6c7	-0.03999975
17	0xbda898cd	-0.082322694
18	0xbcc9cd28	-0.024633959
19	0xbd4fc6a4	-0.050726548
20	0xbbbad97f	-0.005702197
21	0xbd2b82bf	-0.041872736
22	0x3d5ff21b	0.05467425
23	0x3dfb9130	0.12283552
24	0xbdc86f8f	-0.09786903
25	0xbda6d55d	-0.081461646
26	0xbd2ce29e	-0.042208306
27	0xbdb2e4af	-0.08735024
28	0xbd47cb61	-0.04877794
29	0xbb94d044	-0.0045414288
30	0xbce35b86	-0.027753603
31	0xbbdcd2fd	-0.006739019
32	0xbdd11fd2	-0.10211147
33	0xbdd402b2	-0.103520766
34	0x3d37972b	0.0448219
35	0xbbd0dff2	-0.0063743526
36	0xbd4f43d6	-0.050601803
37	0xbda72aed	-0.08162484
38	0xbd3f46f7	-0.046698537
39	0xbd7e0746	-0.062018655
40	0xbd373ce7	-0.044735815
41	0xbd0cffcd	-0.034423638
42	0xbcf8aab2	-0.030354831
43	0xbbf61304	-0.007509591
44	0xbc1ce2d5	-0.009575565
45	0x3c93633c	0.017991655
46	0x3e1752e4	0.14777714
47	0x3b8f06ba	0.0043648155
48	0xbcaa1949	-0.02076401
49	0xbe03525f	-0.12824391
50	0xbc9e8678	-0.01935123
51	0xb9c6fe89	-0.00037955146
52	0xbe3511c2	-0.17682555
53	0xbe13ad86	-0.14421663
54	0xbd0d2f87	-0.034469154
55	0x3da9945c	0.082802504
56	0xbd61a8e8	-0.055092722
57	0xbd012a82	-0.03153468
58	0x3d6ea39e	0.058261506
59	0xbdae9d99	-0.08526153
60	0xbce9891c	-0.028507762
61	0x3b9b6f88	0.00474352
62	0xbd8a9233	-0.067661665
63	0xbd3ba659	-0.04581294

fc3.weight f4 [32, 64]
0	0x3df8349b	0.12119409
1	0x3e243d58	0.16039026
2	0x3da170e3	0.078828596
3	0xbdda6c0a	-0.10665138
4	0xbd2a7696	-0.041617
5	0x3db2917f	0.087191574
6	0xbd43235a	-0.047641136
7	0x3d5b9b32	0.053614803
8	0xbcb2435c	-0.021760635
9	0x3c5bab1c	0.013407495
10	0xbd3bd84e	-0.04586058
11	0xbb814a86	-0.0039456515
12	0x3d0f8c2a	0.03504578
13	0x3d502e83	0.050825607
14	0xbd9d8dc2	-0.07693054
15	0xbcce3ec6	-0.025176417
16	0xbd0cd073	-0.03437848
17	0x3ddf8b05	0.10915188
18	0x3be7e7f1	0.00707721
19	0x3dd8556b	0.10563167
20	0x3d54e2c3	0.05197407
21	0x3c9c1f50	0.0190579
22	0x3ddbcdc2	0.107326046
23	0x3dd8286d	0.105545856
24	0xbcb0d398	-0.02158527
25	0xbb4bc79b	-0.0031094316
26	0x3d6167cc	0.05503063
27	0x3cf272fe	0.029595848
28	0x3db33927	0.08751135
29	0x3d4d3151	0.05009586
30	0x3cec1f32	0.028823469
31	0x3dd90622	0.10596873
32	0x3dbb243b	0.0913777
33	0xbd97bbea	-0.07408889
34	0x3da690cb	0.08133086
35	0xbd236c82	-0.039898403
36	0x3cf5772b	0.02996405
37	0xbd036584	-0.032079235
38	0x3bfff57c	0.0078112464
39	0x3d19ff50	0.037597
40	0x3de22844	0.11042836
41	0x3dd79b8e	0.105277166
42	0xbdcb4e1a	-0.09927006
43	0x3c02d081	0.0079842815
44	0xbd516d55	-0.051129658
45	0x3bfcd9fd	0.007716416
46	0xbd89aa04	-0.06721881
47	0x3dde0834	0.10841408
48	0x3dbace8b	0.09121426
49	0xbb8810cb	-0.0041523925
50	0xbdd00abd	-0.10158298
51	0xbe0000f6	-0.12500367
52	0x3abb8323	0.001430605
53	0xbcb8a4ba	-0.022539485
54	0xbcdfcd71	-0.027319642
55	0x3c99fdbe	0.018797752
56	0x3bcc17af	0.0062284092
57	0x3dba06dd	0.0908334
58	0xbcd8d489	-0.026468532
59	0xbd35e55e	-0.044408195
60	0xbd97c636	-0.074108526
61	0xbdbd949c	-0.092568606
62	0x3c851c42	0.016248826
63	0xbb99a85e	-0.0046892604
64	0x3d0a809e	0.033814065
65	0xbdb3d573	-0.087809466
66	0x3d3b42cc	0.045718
67	0xbdd517ca	-0.10404928
68	0xbd0e8416	-0.034793936
69	0xbdd4fa66	-0.10399322
70	0xbcbcc040	-0.02304089
71	0xbcec208e	-0.028824117
72	0x3c24d1ae	0.010059757
73	0x3d081a38	0.03322813
74	0x3d1cf3bd	0.038318384
75	0x3cfc5017	0.030799909
76	0xbd8b5cda	-0.068048194
77	0xbe6f576c	-0.23373193
78	0xbd2fe054	-0.042938545
79	0x3c7bb26d	0.015362364
80	0x3d2e4d97	0.042554464
81	0xbdf225a5	-0.118235864
82	0x3da122db	0.07867976
83	0x3df76f83	0.12081816
84	0x3b01f5f1	0.001983043
85	0x3d82aac1	0.06380225
86	0xbca12ca2	-0.019674603
87	0x3b233eab	0.002490918
88	0x3dcb772c	0.099348396
89	0xbdd5f7dd	-0.10447667
90	0xbd6bc07b	-0.05755661
91	0x3d01298d	0.031533767
92	0xbdb90419	-0.09033985
93	0xbdc332e0	-0.09531188
94	0xbd85c061	-0.06530834
95	0xbd649a4d	-0.055811215
96	0xbd7b7ac0	-0.06139636
97	0xbda5cfba	-0.08096261
98	0x3d828731	0.06373442
99	0xbde8651c	-0.1134741
100	0xbdd66f01	-0.10470391
101	0x3d8bff52	0.06835808
102	0x3d43ef1b	0.04783545
103	0x3bbeae7f	0.0058191414
104	0xbd8d19bb	-0.06889673
105	0x3d349987	0.044091728
106	0x3d519621	0.051168565
107	0x3ce9119f	0.028450785
108	0xbdaccf5a	-0.08437987
109	0xbdcf2fb1	-0.10116518
110	0x3de80f18	0.11331004
111	0x3d4f3776	0.05059
112	0x3d8bc453	0.06824555
113	0x3d479ad4	0.04873164
114	0x3d833da0	0.064082384
115	0x3de11066	0.10989456
116	0xbccdf11e	-0.025139388
117	0x3d36f991	0.0446716
118	0x3dbed662	0.09318234
119	0x3d54973c	0.05190204
120	0xbdb91cb8	-0.09038681
121	0xbda7da5d	-0.08195946
122	0x3aaf5b0c	0.0013378575
123	0x3de6524e	0.11246167
124	0x3dcb02f1	0.099126704
125	0x3dae882b	0.08522066
126	0xbd504437	-0.050846305
127	0xbdecf4d1	-0.115701325
128	0xbd1b1e03	-0.03787042
129	0xbd84b0b0	-0.06479013
130	0xbcb9d36d	-0.022683823
131	0xbd90a3af	-0.0706247
132	0x3d8e328c	0.06943235
133	0x3d71a961	0.058999423
134	0x3d3f4ac7	0.046702173
135	0xbd8d87f5	-0.06910697
136	0xbde9b3c8	-0.11411244
137	0x3de89e95	0.11358372
138	0xbdeabe80	-0.11462116
139	0x3e042deb	0.12908141
140	0xbdc85857	-0.097824745
141	0xbc878d14	-0.016546763
142	0x3dc66705	0.09687618
143	0xbbdd72bc	-0.006758062
144	0xbd37a5f4	-0.044836
145	0xbd944dd4	-0.07241407
146	0x3d8490de	0.06472944
147	0xbd411770	-0.047141492
148	0x3c6aef24	0.014339242
149	0x3d2a4487	0.04156926
150	0xbdb5e02a	-0.088806465
151	0xbd5ba4cd	-0.053623963
152	0x3d51713a	0.051133372
153	0x3cf4fdf0	0.029906243
154	0xbd9bff69	-0.07617075
155	0x3db08d39	0.08620686
156	0xbdabd4c7	-0.083901934
157	0xbc88d9da	-0.016705442
158	0x3c1525de	0.0091032665
159	0x3e055e85	0.13024338
160	0x3d895639	0.06705899
161	0x3dabc6ec	0.08387551
162	0x3d8d1e47	0.068905406
163	0x3d9b236c	0.075751156
164	0xbdd695e8	-0.10477811
165	0x3ca5f0e5	0.020256469
166	0xbdefd095	-0.11709706
167	0xbc82c24c	-0.015961789
168	0x3dcda316	0.10040872
169	0x3c956c00	0.018239975
170	0x3db307e9	0.08741743
171	0xbd9cd70b	-0.07658204
172	0x3d642f61	0.055709247
173	0x3dbdbc1d	0.092643954
174	0x3d23a965	0.03995647
175	0x3d4973c8	0.049182683
176	0x3dd7d547	0.10538726
177	0x3d8af2de	0.067846045
178	0xbd48f80b	-0.049064677
179	0xbdc78bef	-0.09743487
180	0xbca34109	-0.019928472
181	0x3d8ad3f6	0.067787096
182	0x3dea7ddc	0.11449787
183	0x3d7aab92	0.06119878
184	0xbd2325ce	-0.039830975
185	0x3d9bab1c	0.07600996
186	0x3dc9d234	0.09854546
187	0xbd85c733	-0.06532135
188	0x3d88ab50	0.066733
189	0x3dba946d	0.09110341
190	0x3de95bc8	0.11394459
191	0x3ce29408	0.027658477
192	0x3db3e27c	0.08783433
193	0xbe09748a	-0.13423362
194	0xbdc8be16	-0.09801881
195	0x3ca9d598	0.020731732
196	0xbe3e76b5	-0.1859997
197	0x3c8e5e27	0.01737888
198	0x3da1c860	0.078995466
199	0x3d588991	0.05286557
200	0xbda0d55e	-0.078531966
201	0xbc3256b5	-0.01088493
202	0xbc403267	-0.011730767
203	0x3da206d8	0.079114616
204	0x3d1c913a	0.038224436
205	0xbde7876a	-0.11305125
206	0xbd14ba6f	-0.03631061
207	0x3d85d046	0.06533866
208	0xbdcf4ad5	-0.10121695
209	0x3d9c4dea	0.076320484
210	0x3d9f15e0	0.07767844
211	0xbb15ee54	-0.002287765
212	0xbd819d40	-0.06328821
213	0x3d70f1cd	0.05882435
214	0xbdc7a273	-0.097477816
215	0xbc4ecb1c	-0.012621667
216	0xbda3450b	-0.07972153
217	0xbd959b05	-0.07304958
218	0x3cae308b	0.021263381
219	0xbdefa189	-0.11700732
220	0x3c6bb488	0.014386304
221	0xbdca2ce9	-0.09871847
222	0x3dba937d	0.091101624
223	0xbdcdcb4c	-0.100485414
224	0xbd25d235	-0.040483672
225	0xbd5016b1	-0.05080289
226	0x3d729644	0.059225336
227	0x3dc15d23	0.094415925
228	0x3c99ac2b	0.018758854
229	0xbde258ed	-0.110521175
230	0x3cdd5643	0.027018672
231	0xbcf4aef3	-0.029868579
232	0xbdfd7010	-0.1237489
233	0x3c67aaef	0.014139875
234	0x3ccbd60a	0.024882335
235	0xbd6bf898	-0.057610124
236	0xbda44663	-0.08021238
237	0xbc704b1e	-0.014666347
238	0xbd717041	-0.058944944
239	0xbcb98c80	-0.022650003
240	0xbdb4d51a	-0.088297084
241	0x3dcc522c	0.099766105
242	0xbd9dfbcd	-0.07714043
243	0xbd9df5ad	-0.077128746
244	0xbd3b3e24	-0.04571356
245	0x3b971065	0.0046101087
246	0x3df04c6d	0.11733327
247	0x3daa635d	0.08319733
248	0x3db38270	0.08765113
249	0xbe0a208f	-0.13488983
250	0xbdd6a0a6	-0.1047986
251	0xbde29b50	-0.1106478
252	0x3c3804b1	0.011231587
253	0x3cd879d6	0.026425283
254	0xbdb41a6c	-0.08794102
255	0x3d3fe3db	0.04684816

fc3.bias f4 [32]
0	0x3d6c4b43	0.057688963
1	0xbcc1f562	-0.023676578
2	0x3dac2917	0.08406275
3	0xbd15ff31	-0.036620323
4	0xbd2d0531	-0.04224128
5	0xbd4d2650	-0.050085366
6	0xbd986129	-0.07440407
7	0x3e6617ad	0.22469969
8	0xbdf5efe6	-0.120086476
9	0xbe379251	-0.17926909
10	0xbdc84451	-0.09778655
11	0xbc8ed67c	-0.017436258
12	0x3e555200	0.20832062
13	0xbbf1248b	-0.0073590926
14	0xbd6422b1	-0.055697147
15	0x3e18f271	0.14936234
16	0x3e4891ed	0.19586916
17	0x3e0c36dd	0.13692804
18	0x3e1523d8	0.14564455
19	0xbddaf66b	-0.10691532
20	0xbcf06610	-0.029345542
21	0x3bc65d8d	0.0060536326
22	0x3d93b950	0.0721308
23	0xbd84f28b	-0.06491574
24	0xbda3e77a	-0.08003135
25	0xbc9c2a14	-0.019063033
26	0xbe37bb40	-0.17942524
27	0x3e462478	0.19349849
28	0xbe15db7b	-0.14634506
29	0x3dbea0fb	0.09308048
30	0xbda7affd	-0.08187864
31	0x3b8e5cba	0.00434455

fc4.weight f4 [1, 32]
0	0xbdabc6c4	-0.08387521
1	0x3e2111a8	0.15729392
2	0xbc990aeb	-0.018681964
3	0x3dd6125a	0.10452719
4	0xbdc3d1ce	-0.095615014
5	0xbe04d7f2	-0.12973002
6	0xbdade4e3	-0.08490922
7	0xbe11b429	-0.14228882
8	0x3de18a78	0.11012739
9	0x3da0ad7b	0.07845589
10	0x3d2e272a	0.04251782
11	0x3e046d8b	0.12932412
12	0xbdc2b7e5	-0.09507731
13	0x3d218bb5	0.039439876
14	0x3d9b1a62	0.075733915
15	0xbd937506	-0.07200055
16	0xbce4ec6a	-0.027944762
17	0xbdb5d21d	-0.088779666
18	0xbc3fc286	-0.011704093
19	0x3b14090b	0.0022588398
20	0x3e1378da	0.1440157
21	0x3c9e6893	0.019336974
22	0xbcec685f	-0.028858362
23	0x3e1038cd	0.14084168
24	0xbde00ce9	-0.109399624
25	0xbe214fc0	-0.15753078
26	0x3e10c055	0.14135869
27	0xbcb909ee	-0.022587743
28	0x3de3372b	0.11094507
29	0xbc9e7a14	-0.01934532
30	0xbd12ee71	-0.035871927
31	0x3dcb75da	0.09934588
