src/model/models/203/cnn_regressor_203.pt (torch, 247385 bytes, 7 tensors)

fc1.weight f4 [128, 394]
00000000: 304b af3b f1ce 2abd e746 473d 347f e7bc
00000010: 2822 3c3c 6dde 183d 506d 9c3b 21f6 2e3d
00000020: 7d6c 2f3d 9c3e 013c 16f5 f53c b6af 81bc
00000030: f044 243c 485a d83b da18 fe3c bed8 1bbd
00000040: 0047 1cbd 7695 c93c 5660 c53c 2fc8 1c3d
00000050: 006b b73b 5ed6 8dbc a491 63bc 00f2 a5b9
00000060: 8068 d33b c641 d73c a019 f9bb bd78 163d
00000070: 537a bdbc e621 a33c 1c64 2fbd 208f 11bb
00000080: 211e 0c3d 7039 80bc a871 a6bc 0d3b 143d
00000090: 6809 9a3b ccf3 95bc 909f 0bbb aaf1 e33c
000000a0: 1f6f c1bc 858a 13bd be58 e2bc bb45 4abd
000000b0: c9db 0a3d a069 adba 415b 36bd 4100 debc
000000c0: c4e5 1d3c b4a5 3f3c 75aa 49bd 65a2 183d
000000d0: d641 16bd e101 153d 1e3c f03c c9e6 20bd
000000e0: 000e 9fba 1dca 0e3d 0c6c 633c 48b6 d6bc
000000f0: 597a 363d 262b f9bc cc66 6abc 0509 3f3d
00000100: 6ca0 a7bc 1ba7 233d 3d2d 193d 28ea 26bd
00000110: 8a5f e0bc f799 403d 6c1d 7b3c 2921 243d
00000120: 6906 2d3d dc5f 9bbc 67eb 2e3d 0049 74bb
00000130: 2a39 a13c 85ba 053d 466e 9f3c 521c 45bd
00000140: 1ee2 893c 2927 373d edfd 35bd 23f9 eebc
00000150: e0bb 36bd 8839 ccbb bec5 c03c 2204 e63c
00000160: fd27 273d 5782 103d efab 32bd 30d6 18bd
00000170: d3da 313d 8858 cebc fcae 44bd 3788 0f3d
00000180: 6509 143d 63a3 4bbd 70cf 8cbc 6b00 023d
00000190: 6de1 efbc 328f a8bc c849 313c 303e 25bc
000001a0: f1f0 3a3d 201b 82bc cb37 d1bc 80dd 233b
000001b0: 2d3e 21bd 40a0 cb3a 0310 eabc e05e bcba
000001c0: c46a 3f3c e01b e3ba 6cc0 2f3c 2f66 0d3d
000001d0: e055 28bc 00b6 58b9 1b87 043d 8160 bdbc
000001e0: a7d7 323d 88fa 43bd 59cc 063d a0f8 f0bc
000001f0: 340b 58bc 3590 0d3d 659a a3bc c086 ddba
00000200: dcd6 9dbc 48aa 73bc e047 333c 0fe4 2d3d
00000210: b7b1 1a3d 31e3 0abd ad4f cdbc 9257 f13c
00000220: 52d4 ef3c ab1a 463d 40c0 613a ff83 313d
00000230: 863e e63c f468 613c 328e 9c3c 083d 123c
00000240: 598e 1a3d ea53 db3c d47b 1cbd 2c89 4bbd
00000250: e263 d73c dc0a 143c 9e1e debc 1070 aabb
00000260: d8e2 28bc 8c2e 523c 9005 7e3b 8ae7 8abc
00000270: 4e5e b73c 0dbe 193d 2bec 153d eed1 13bd
00000280: 0f36 a1bc a9b9 173d 7a2f ff3c d6d3 0bbd
00000290: 5cf7 7ebc a4f2 4bbd d09d 50bc 2cf7 7a3c
000002a0: 607a e33a 849f 5c3c 7ca4 06bd a6a3 36bd
000002b0: 80fb 2c3c 171b 033d e2c2 efbc 0096 25bb
000002c0: 3964 313d ff19 debc e27f bd3c 0cc1 65bc
000002d0: 2a05 c2bc 2be8 03bd 7dbc 9ebc d0d5 08bc
000002e0: 3e11 ae3c 4ad7 12bd 2d2d 3fbd 38ae b2bb
000002f0: 2806 a6bb 8049 e9bb 4c2e 4abc 14b1 0e3c
00000300: c0d0 d4bc 005c 183a 7a68 da3c e5a3 2bbd
00000310: dd50 12bd 0834 5cbc daa5 14bd c0e8 01bb
00000320: 4c8b 08bd 778a 09bd 6743 c6bc fb92 3cbd
00000330: 9c07 333c e467 57bc 7b34 323d 3a4e ec3c
00000340: af5d 4b3d b39e a2bc 1eb0 943c 6acd 8a3c
00000350: 351c 403d de56 ba3c 66e1 ba3c 0d41 1c3d
00000360: cc39 c7bc 351a 14bd 5115 173d a067 ccbb
00000370: 4cf7 9abc e768 24bd ab81 2e3d 6389 243d
00000380: d1fc 40bd 894b d9bc e0e1 633b 44f9 5d3c
00000390: 80d1 4bba 11d0 0a3d 2e42 963c 1367 04bd
000003a0: 14d8 753c 9b16 103d 12d5 f73c 2877 8abc
000003b0: a77e 3e3d 40a1 8c3a 1611 be3c 1ee8 c0bc
000003c0: f8a5 0ebc 3ab4 40bd 9e33 a23c 0a95 9a3c
000003d0: 7c6d 6bbc f055 203b 603c a9ba ed37 4e3d
000003e0: 29e0 163d fb1c 4a3d 3fce 3f3d 2c88 67bc
000003f0: 0533 163d 0fac 0c3d b047 3cbd e56f 3f3d
0.005349539 -0.04170126 0.048651602 -0.028258897 0.011482753 0.037321497 0.0047737733 0.042715196
0.04282807 0.007888462 0.030024093 -0.015830856 0.010026202 0.0066025592 0.03101771 -0.0380485
-0.03815365 0.024607401 0.024093788 0.038276847 0.005597472 -0.017314132 -0.013889704 -0.00031651556
0.0064516664 0.02627648 -0.0076019317 0.03673624 -0.023129618 0.019913625 -0.04282008 -0.0022210553
0.03420842 -0.015652388 -0.020317867 0.036189128 0.0047008283 -0.018304728 -0.0021304823 0.027825195
-0.023612557 -0.036020774 -0.027630206 -0.049382906 0.03390101 -0.0013230331 -0.04452062 -0.02709973
0.0096373 0.011697222 -0.049234826 0.037264246 -0.03668388 0.036378745 0.029325541 -0.039282594
-0.001213491 0.03486072 0.013880741 -0.026209965 0.044550274 -0.030416083 -0.014306735 0.04663946
-0.020462237 0.039954286 0.03739666 -0.040750653 -0.027389307 0.047021832 0.015326839 0.040070686
0.04224244 -0.018966608 0.042704966 -0.0037274957 0.019680578 0.032648582 0.019461762 -0.04812271
0.016831454 0.04471508 -0.044431616 -0.029171532 -0.044612765 -0.006232444 0.02353179 0.028078143
0.04080962 0.03528055 -0.043621 -0.03731364 0.043421578 -0.0251887 -0.04801844 0.035042014
0.03614177 -0.049716365 -0.017188758 0.03173868 -0.029282296 -0.020576093 0.0108208135 -0.010085627
0.045639936 -0.015882075 -0.0255393 0.002500385 -0.039365936 0.0015535429 -0.028572088 -0.0014371537
0.01168317 -0.0017327033 0.010727029 0.034521278 -0.01027438 -0.00020667166 0.03235541 -0.023117306
0.043662693 -0.047846347 0.032909725 -0.029415429 -0.013186265 0.034561355 -0.019971082 -0.001690112
-0.019267492 -0.014872141 0.010942429 0.04245382 0.03776714 -0.033908073 -0.025062406 0.029460702
0.029276047 0.048365276 0.00086117163 0.043338772 0.028105985 0.013757933 0.019110773 0.008925684
0.03773341 0.026773412 -0.03820403 -0.049691364 0.026292745 0.009035792 -0.027114209 -0.005201347
-0.01030799 0.01282848 0.003876064 -0.01695611 0.022383835 0.037534762 0.03660218 -0.036088876
-0.019679097 0.037042294 0.031150568 -0.03413757 -0.015561905 -0.049791947 -0.012732938 0.015317719
0.0017355196 0.013465766 -0.03287171 -0.04458966 0.010558009 0.032008257 -0.029267732 -0.002526641
0.04330847 -0.027112005 0.023132268 -0.014023077 -0.023684103 -0.032203835 -0.019376988 -0.008351758
0.021248456 -0.035849847 -0.046673942 -0.0054528974 -0.005066652 -0.0071193576 -0.01234014 0.008709211
-0.025978446 0.0005812049 0.026661146 -0.04190435 -0.03572165 -0.01344014 -0.03629098 -0.0019822568
-0.03333597 -0.033579316 -0.024202062 -0.04603861 0.010927107 -0.013147328 0.04350708 0.028845895
0.04964989 -0.019851064 0.018150385 0.016943652 0.0469019 0.0227465 0.022812556 0.038147975
-0.024319552 -0.036157805 0.036885563 -0.006237939 -0.018916748 -0.040139105 0.04260413 0.040170085
-0.047116105 -0.026525276 0.0034772083 0.013548199 -0.00077750534 0.033889834 0.018342104 -0.03232486
0.01500513 0.03517781 0.030252967 -0.016902521 0.046507504 0.0010729209 0.023201507 -0.023548182
-0.008706562 -0.047046877 0.019800004 0.018869895 -0.014369365 0.0024465285 -0.001291167 0.050346304
0.03683487 0.049344044 0.04682755 -0.014131587 0.03666975 0.034343775 -0.045966804 0.04673757

fc1.bias f4 [128]
00000000: ffb9 dbbc a8a4 07bd 7ee2 943c e952 3fbd
00000010: ad10 e03c 66cc 41bc eb9d fdba fcb2 0ebd
00000020: 1264 1dbd d318 233d c72c 6dbd 447d ddbc
00000030: 8ca9 2e3c a0ee 59bd dd45 2d3c 0be0 87bc
00000040: adc1 1ebd f950 a0bb c302 2b3d 50f0 fbbb
00000050: 35a6 293d a793 083d 150f 29bd e2b2 24bc
00000060: e908 9ebc 53b9 6abc 49ac 113d 530e cb3c
00000070: dac5 afbc 4040 7c3b 43a5 1abd 772d 33bd
00000080: 0203 29bd a225 27bd 444e 283c d691 ac3c
00000090: 4dab 09bd bdfe 6fbb 7eed 98bc 4428 a1bc
000000a0: 8be0 c8bc a2f9 64bd 2801 8fbc 5b9a b03c
000000b0: e254 00bd 3af9 d83c a672 813c d32f f0bc
000000c0: c778 163d 8910 223d 371b 9d3c 7183 aa3a
000000d0: 89c2 24bc a96b ac3c 6d8a 2fbd 3866 1dbc
000000e0: 393b d8bc 59c2 033c 94ee 7f3c 9f94 263d
000000f0: 4216 cc3c 1f84 2fbc 8479 14bd 2bba c9bc
00000100: fb8a 61bc 86ed 0cbd dc98 b5bc a054 2ebd
00000110: 365f ef3c a872 87bb 116f 83bc fb3a bcbc
00000120: 74a7 10bd babb e4bc 7d56 4abd 14f2 97bc
00000130: 8a06 b43c 93e2 25bd add6 99bc c22a acbc
00000140: c0ec 5dba 1dfb 4c3d 4f20 bb3c f0bc 5ebc
00000150: c0c0 08bd 01e9 bcbc fc49 76bc d245 393d
00000160: 7758 243d da73 f83c 8007 033b 81eb 203d
00000170: 7d9e 3dbd e4d2 bc3c c7b5 b1bc 8ef0 223c
00000180: 1254 8d3c 4e4d eabc 0bc6 a739 6150 42bd
00000190: 273e 0f3d b5fb 3cbd 97b0 71bd 6f27 b23b
000001a0: 47ef e2bc 0ac1 113d 057a 203d 56f0 9f3c
000001b0: e303 183d 2959 c2bc 33b0 023d 197d 2f3d
000001c0: 0c07 54bd 9f53 a73c a070 f33a 59d3 203d
000001d0: 00fb cdba 5a7a cbbc 509f efbb 1804 b13b
000001e0: 15d1 263d 4df7 203d 060f 30bd 5e9b 1cbd
000001f0: 3891 e13b a9be 0e3d 00fb 43bb f71b 65bd
-0.026822088 -0.033116013 0.018174406 -0.04670993 0.027351702 -0.011828518 -0.0019349431 -0.03483866
-0.038425513 0.039818596 -0.05790403 -0.02703727 0.01066054 -0.053206086 0.010575739 -0.016586324
-0.038758922 -0.004892465 0.04175068 -0.0076885596 0.041418273 0.033343937 -0.04127415 -0.010052415
-0.019291358 -0.014326411 0.035564695 0.024787104 -0.021456648 0.0038490444 -0.037755262 -0.04374453
-0.041262634 -0.040807374 0.010272566 0.021065634 -0.03361063 -0.0036620342 -0.018667933 -0.01967252
-0.024521133 -0.05590213 -0.017456606 0.021557977 -0.03133095 0.026486028 0.015801739 -0.02931968
0.036736276 0.03956655 0.019178016 0.0013009143 -0.010056146 0.02104743 -0.042856622 -0.00960689
-0.026395427 0.008041942 0.015620846 0.04066908 0.024912957 -0.0107126525 -0.0362487 -0.024624905
-0.013766046 -0.034406208 -0.022167616 -0.042561173 0.029220205 -0.004133541 -0.016044172 -0.022977343
-0.035315946 -0.027921546 -0.049398888 -0.018548049 0.021975774 -0.04049928 -0.018779123 -0.021016482
-0.00084657595 0.050044168 0.022842554 -0.013594851 -0.033386946 -0.023060324 -0.015032288 0.0452326
0.04012343 0.03032868 0.0019993484 0.039287094 -0.046293724 0.02304978 -0.021693124 0.009945048
0.017252002 -0.028601315 0.00032000276 -0.047439937 0.034971382 -0.046138484 -0.0590063 0.0054368298
-0.027701987 0.035584487 0.039178867 0.01952378 0.03711308 -0.023724156 0.031906318 0.04284391
-0.051764533 0.020425616 0.0018572994 0.039264057 -0.0015715063 -0.024838615 -0.0073126927 0.0054020993
0.04072674 0.039298344 -0.042983077 -0.038234107 0.0068837665 0.034849796 -0.0029904246 -0.055934872

fc2.weight f4 [64, 128]
00000000: f8fb b23c 0047 ce3a 6f2e 9abd b848 0ebc
00000010: f140 9dbd 8578 4cbb 0f1e 7a3d 1dd2 2a3d
00000020: 7e6f 3e3d 1285 6d3d 32c2 88bd 450c bcbd
00000030: 3dc7 b03d 80e2 99bd 8fed a1bc 0655 223d
00000040: d0f0 933b 71ed 46bd e666 c53c 50fb 83bc
00000050: 46fa 283d fb38 c4bc 1258 643d abfb fabc
00000060: 00c0 e4bc fc71 583d 64fc 103d 94bc 063c
00000070: e9ee e7bc b8a4 10bd 2078 61bb 82e6 603c
00000080: 22b6 593d c2d8 78bb 62e8 1d3d 8b1b 0fbd
00000090: 8586 a23d 77a8 983d e388 64bd 2f34 78bd
000000a0: b140 9e3d 3085 483d f74f a93c 911d 4c3d
000000b0: e144 13bd 2287 2e3d 28c4 82bd e834 903d
000000c0: eb1f 5abd 62d7 4a3d adc0 b33c 0a4d 143d
000000d0: cb53 253d c943 8cbc fcd0 923c dc49 a13c
000000e0: c0c7 313c a6a5 5cbc 969c ffbc ed2f 4ebd
000000f0: d8d3 09bc 3e53 a9bd 5679 083c 62e1 443d
00000100: ea21 4a3d ccf9 8abd bca4 a3bc 4e6c d03b
00000110: c053 61bd 670b a1bd c80b 4c3c bd83 62bd
00000120: 16d2 1cbd f0b7 a7bb 46d8 58bd ba11 fcbc
00000130: 6085 3d3b 1b1a 26bd 8a7f b03b c503 8dbc
00000140: c508 7abd dda0 ae3d 262c 72bd b18c 983d
00000150: b6ce cdbc ba9c 113d b6fe 84bd 45d2 aabc
00000160: 8e68 1c3d 35b1 72bd e385 2fbb 3180 a5bd
00000170: 58bb 8abc a8ae 17bd ce0d 99bd cb92 d53c
00000180: 687c bb3b e703 8cbb 87b9 a6bd 5840 7cbc
00000190: 06f5 243d 969f 90bd ad4e 523d 6563 8ebd
000001a0: 49e6 a9bc fa03 12bc 90da 92bb 545f 4ebd
000001b0: 1b96 f53c 4cc1 863c a444 9dbd a2f4 26bd
000001c0: bafb 033d c6c1 98bd bf72 a6bd 2e15 1cbd
000001d0: ce48 edbc 719c 0bbd 1dde 43b8 2737 1ebd
000001e0: 45e9 68bd 566a 423d cedd 3a3d b464 e33c
000001f0: ceeb 053d d6cb 08bd a505 a83d 3eed 883d
00000200: 6a2a 473d 99eb 44bd 0af8 473d 3ea6 543d
00000210: 45f7 ac3d a5ec 013d 5cae aa3b 062a 86bd
00000220: 64c3 883a 4809 f0bc 6ad4 873d 71a7 15bd
00000230: 8093 bd3c 5024 763c fe8b 8ebd 95b2 ef3c
00000240: f406 a73a b660 4c3d 1c9f fabc 82f5 a3bd
00000250: 3411 00bd 6f5a 7abd d23a 4d3d 95d4 7dbd
00000260: 2ce0 73bd 7a0a 133d 7cf5 a63c b9a1 a93d
00000270: 10ed b33d fa9a 2e3d 19d9 58bd ad37 2cbd
00000280: 1e40 8dbd 5591 bb3d be15 99bd b021 af3b
00000290: 403b 35bb 7cc6 f3bc 378d 81bd dcdf 8c3c
000002a0: a66c abbd 2059 9dbb 4c11 d83c 8874 4dbc
000002b0: 35a3 d6bc c818 ee3c 23bb 8d3d 329c 463c
000002c0: 2ac6 2fbd 94cf b4bc e75d 273d 27d1 0f3d
000002d0: 007a 2d3b c22e 363d 7446 843c 0090 ac39
000002e0: 2029 8ebc 1cda 8dbd 20ed 763c 45ee 58bc
000002f0: 0638 debc 388e 933d 26ad 7c3d efce 0abd
00000300: b04a 03bd 700a 5b3c 5e98 1cbd 36ce 61bd
00000310: d31e 0bbd 2edd 253d 914f 88bd 4cff 903c
00000320: 1cbf 80bc ac1f 6fbd 5d32 ad3c db00 a23d
00000330: a044 aebd 2d5c 563c de27 3fbd 29f0 6cbd
00000340: 893a 33bc 5c74 e4bc 1356 6bbc 8c3b b93c
00000350: 002e e0bc c868 14bd 32b4 7bbd b0aa a73d
00000360: 1078 e0bb d62d 243d 80b1 0fbc f88b 83bd
00000370: 4267 dfbc d4ac 9e3c 95bd bfbc 3a5b b63a
00000380: f358 733d 234c 13bb c8dd e4bc 3a45 99bd
00000390: 121e 2bbd 8504 3fbd 4996 64bd 0483 b5bc
000003a0: e719 963d 803b 543b 48dd 3a3c 0a5e 0abd
000003b0: 1f2a a1bb bc53 2bbd 3b07 95bd e5e3 a73d
000003c0: 5c72 2ebd 2f60 82bd 8f10 b43d 936d 21bd
000003d0: 2409 063d 377a 903d eb0d 97bc c68b 86bd
000003e0: 5cd9 123d 68b2 283c 9d45 95bd de1f 92bd
000003f0: 5f11 81bd de66 05bd 388f 243c cd0d f1bb
0.021848664 0.0015737712 -0.07528388 -0.00868433 -0.07678402 -0.0031199765 0.061063822 0.041704286
0.046493046 0.057988234 -0.06677665 -0.09182028 0.08631752 -0.075139046 -0.019766597 0.039631866
0.004514791 -0.048566286 0.024096917 -0.016111046 0.041254304 -0.023952952 0.055748053 -0.030637583
-0.027923584 0.05284308 0.03539695 0.0082236715 -0.028312163 -0.035313338 -0.0034403875 0.013726832
0.05315221 -0.0037970995 0.038551696 -0.034938376 0.07935814 0.07454007 -0.055794608 -0.06059664
0.07727183 0.048955142 0.020668013 0.049832884 -0.03595436 0.04260934 -0.0638507 0.07041341
-0.053253096 0.04952181 0.02194246 0.036206283 0.040363114 -0.017122166 0.017921917 0.01968854
0.010850847 -0.013467228 -0.031202596 -0.050338674 -0.008412324 -0.0826783 0.00832971 0.048066504
0.04934875 -0.06785926 -0.019976012 0.006360567 -0.05501151 -0.07863503 0.012453981 -0.055301417
-0.03828629 -0.0051183626 -0.05294063 -0.030770171 0.002891861 -0.04055224 0.0053862976 -0.017213712
-0.06104352 0.08526776 -0.059124134 0.0744871 -0.025122982 0.035549857 -0.06493895 -0.020852217
0.03818565 -0.05925103 -0.0026782684 -0.08081091 -0.016935036 -0.0370318 -0.07473336 0.026070973
0.0057216175 -0.004272926 -0.08140855 -0.0153962 0.040272735 -0.070616886 0.051344562 -0.06952552
-0.020739691 -0.008912081 -0.004481621 -0.05038388 0.029978802 0.016449593 -0.07679108 -0.040760644
0.032222487 -0.07458834 -0.08127355 -0.038106136 -0.02896538 -0.03408474 -4.6698482e-05 -0.038626816
-0.05686309 0.04746469 0.045621686 0.02775798 0.032695584 -0.033397518 0.082042016 0.06685875
0.048624434 -0.048076246 0.048820533 0.051916353 0.084456004 0.031719822 0.0052087735 -0.06550984
0.0010434208 -0.0293013 0.06632312 -0.036536638 0.023141623 0.015023306 -0.06960295 0.02925996
0.0012743161 0.04989692 -0.030593447 -0.08005811 -0.031266406 -0.0611214 0.050104924 -0.061970312
-0.05953996 0.035898663 0.020380728 0.08282799 0.087854505 0.042628266 -0.052941415 -0.042045284
-0.06896995 0.09158579 -0.0747485 0.005344592 -0.0027653724 -0.02975773 -0.06325763 0.017196588
-0.083703324 -0.0048018843 0.026375435 -0.01253999 -0.02620087 0.029064551 0.06920459 0.012122201
-0.042913593 -0.022071637 0.040861037 0.035111573 0.0026470423 0.044478185 0.016146876 0.00032913685
-0.017353594 -0.06926367 0.015071183 -0.013240402 -0.027126323 0.072048604 0.061688565 -0.033888754
-0.03205365 0.013369188 -0.038231246 -0.0551283 -0.033964943 0.040494137 -0.06655801 0.01769986
-0.015716128 -0.058379814 0.02114218 0.079103194 -0.08509183 0.0130835 -0.04666888 -0.057846222
-0.010939249 -0.027887516 -0.014363783 0.022611402 -0.027365685 -0.03623274 -0.061451145 0.08186853
-0.00685025 0.040082775 -0.008770347 -0.06423181 -0.027270917 0.01936952 -0.02340583 0.0013912686
0.059411 -0.00224758 -0.027937785 -0.07483907 -0.041776724 -0.04663517 -0.055807386 -0.0221572
0.07329159 0.0032384098 0.011405297 -0.03378109 -0.0049183513 -0.041827902 -0.0727677 0.08197764
-0.04258953 -0.06366002 0.08792221 -0.03941114 0.03272356 0.07054561 -0.018439254 -0.065696284
0.03585182 0.010296442 -0.07288668 -0.071349844 -0.063021414 -0.032568805 0.010043912 -0.0073563815

fc2.bias f4 [64]
00000000: df29 69bc 88ca 55bc a56e 5cbd aab3 96bd
00000010: d319 9abb f51d 47b9 3245 bfbd 06eb 223e
00000020: 485d 92bb ce0b c3bd 3907 b63d 9ddb 9dbc
00000030: da63 e8bb 7d44 ae3d 6322 0c3e f14a a6bd
00000040: 1c80 0cbe 0c68 53bc 1494 bebd 5401 aebd
00000050: 5351 c9bc 9ce6 15bd e8cf e4bc 89e5 8bbd
00000060: 1b97 8bbd c342 963d 0914 4bbc 4e6c 01bd
00000070: 4c54 a2bc e3ac 0cbc ed10 203e 8aa6 0abc
00000080: 6efe 1c3e 6654 a13d 36fe 8bbb 8dc9 833e
00000090: a724 793d 7e64 8dbb c5b1 9dbd 4cd1 343d
000000a0: f401 033e ab1f e2bd d3c5 863d e5f9 dcbc
000000b0: 1985 b3bd 18eb b8bb 1c7c 2d3e a2e6 293e
000000c0: 8739 37bb 7f8f ddbc ed54 ccbd aac0 8cbb
000000d0: 1967 6abd 2558 babc 0774 13bc e989 e4bd
000000e0: 299f 183d 78bf 0f3c b8d0 31bc 61e0 ecbc
000000f0: 2881 5e3d 5750 58bd 392c 89bd b9cd 9d3d
-0.014231174 -0.0130487755 -0.053816456 -0.07358487 -0.0047027855 -0.00018989279 -0.0933937 0.15909967
-0.0044666864 -0.09523736 0.08888096 -0.019269759 -0.0070919814 0.08509157 0.13684992 -0.08119763
-0.13720745 -0.012903225 -0.093055874 -0.08496347 -0.024574911 -0.03659688 -0.027931169 -0.0683089
-0.068159305 0.073369525 -0.0123949135 -0.031597428 -0.019815587 -0.008586141 0.15631457 -0.008462558
0.15331432 0.07877426 -0.0042722477 0.2573971 0.06082597 -0.004314958 -0.076999225 0.044144914
0.12793714 -0.110411964 0.06580701 -0.026974628 -0.08765621 -0.0056432597 0.16941875 0.16591886
-0.0027957873 -0.027045963 -0.09977136 -0.0042954283 -0.057227228 -0.022747109 -0.008999831 -0.11159117
0.037261162 0.008773677 -0.010852985 -0.028915586 0.05432239 -0.052810993 -0.06697888 0.07705254

fc3.weight f4 [32, 64]
00000000: beeb bdbd 2fd6 993d 2a14 343c 2f14 f13d
00000010: e965 ab3d 543d 383d 3b75 5abd ffdf 6b3d
00000020: c17e 333d bc55 fabd 0be1 fabc f940 dbbd
00000030: 8c7b 5d3d f868 a33d a6df 75bd cb3a 38bd
00000040: e88c eabd 6851 cc3d e307 8abd 6a07 803d
00000050: b5f7 3e3d e8c4 d0b8 034a 5abd f432 8f3c
00000060: 0518 233d 233d 813d 91c4 96bb 6678 553c
00000070: 4348 cdbd bc85 123d 2e3a d23b 0665 08bc
00000080: 772a dabc ef40 e23b cd86 e6bd 4999 d03d
00000090: c679 9ebd 002f efbd 016e 8cbd a0cc f33d
000000a0: a8f5 d23d 4487 57bd 26a1 a63d eb35 b33d
000000b0: 60e9 073c 6098 e73d baf9 b2bd 3a61 02bd
000000c0: ca59 d83d fa8a 613b b705 ea3d ca0a 6ebd
000000d0: 50fc d73d ed67 9b3d 609a 033e 0e62 b4bc
000000e0: b9cf 44bd 2a5a a93d b25c 4ebd 9b38 013d
000000f0: c025 fb3b d1ed b63d e152 2d3b 0425 ac3c
00000100: e2bd 14bd 74f5 56bd 9f66 29bd f1f2 d63d
00000110: aeb1 bd3c f2f5 e2bd 7bfb b3bd 5c70 8f3d
00000120: 3c10 753d 417d ad3b 3c8a 59bc b0de debd
00000130: 9fe7 d9bd 2ad0 a1bb 5224 e63d 4e4a a4bd
00000140: 98a3 5ebd 5806 0abd 973d e4bd 9469 9e3d
00000150: 177f a8bc bf81 e03b ee16 51bd 049a 70bd
00000160: 57bb 2c3d 8f63 203d 8e61 783d 31bd 60bd
00000170: a5a8 c8bd 8164 b5bd 2475 82bb 5dd3 e0bd
00000180: 145e ae3d 0209 ec3c 0f3d 8bbc 6b70 503c
00000190: a5b7 0c3d c6e0 7bbd bd71 753d 5dae 903d
000001a0: fad9 29bc 7f94 c2bd bb40 243d ad9e f4bd
000001b0: 9fdf c9bb 8419 06be e864 e13d a75c 9a3b
000001c0: 7893 8cbd d43e 4ebd ccb9 9fbd 4e84 2939
000001d0: 21d0 9b3d 19c0 9e3d 9dad 08bd 95c7 b7bd
000001e0: 9869 9c3d 41a8 18bd 4785 87bd 41cb e3bd
000001f0: 18f8 933c c14b cb3d 9f60 a13b 0e6c 49bc
00000200: d5d0 8b3b 4d3a 4dbd 6276 37bd 5291 9abd
00000210: ded1 9d3d 27b4 a4bd f4eb fabb 142d cbbc
00000220: b204 583c 1278 9e3d 4f37 f4bd 6aa6 a9bd
00000230: fefc c63d 571e ef3d 6841 c03b 05c9 83bd
00000240: da84 c1bd 7ff9 b2bd 80fe 82bd 6f2a ff3c
00000250: 4e3e b93b 101c 163e eeb0 35bd b2da 8bbd
00000260: a1dc d33d dc23 dfbd 2f11 81bd f659 bf3c
00000270: 6997 ad3d f446 cd3c be11 f13d 641a b139
00000280: bcf4 b13d 1064 633d b4dd eabc 5b7a 40bd
00000290: 60c4 aebc f3f3 433d 122e debc e55c be3d
000002a0: c00f 80bd 3171 cdbd 0623 ab3d 6573 5b3d
000002b0: e105 cebd b9d1 b63d d027 a13d a53f 99bd
000002c0: 0d00 853d 4e45 44bd 83cb 503d ad5c 013e
000002d0: 28f5 88bd 6cb6 cb3d 06ac 803c 0b5c f6bd
000002e0: 666d a6bd ed5f 5fbd 55ba 2abd c21c e13c
000002f0: 8051 ca3c e7ea 9f3d 690e 37bd f542 c9bd
00000300: 7fd0 cb3d 0b17 05bd ef0a 8cbd f092 d93c
00000310: d887 50bc 5133 fe3d 1a59 44b9 832a 9d3d
00000320: 48d6 06be ef93 20bd d996 aebd 315d a3bd
00000330: 139c debc e790 053d 5e88 d6bd c65d dd3d
00000340: b874 c23d ac15 ae3d de07 d83d 7247 f5bd
00000350: 29ee 62bd e872 b63d 43e9 a1bd c83b 8e3d
00000360: 3449 b63d 7419 e4bd 7f4e 54bd 53af 83bc
00000370: e55d 3cbd 9730 b63d bac7 b8bc 6dbe 5cbd
00000380: 9876 cc3d c576 c03d 8228 543d a8af bebd
00000390: 179f a9bd c1e1 bf3d 088a 5f3d 7be2 a4bc
000003a0: bfa7 4a3d 7c94 81bd 1be8 5e3d 1888 253d
000003b0: 9007 983d 55f0 cfbc 8676 b93c eaa2 23bd
000003c0: 8123 153d d35c f1bd b0eb c7bd fb5d 2b3d
000003d0: 02f5 c63c 11ee c9bd 1af0 a8bd 2328 aa3d
000003e0: cc88 a93d 1f1b 993d 2b77 873d ee0e 33bd
000003f0: d146 bc3c 3de5 3b3d e0ab f93d e33d 1d3d
-0.0927348 0.075115554 0.010991136 0.11771428 0.08369047 0.044980362 -0.053334456 0.057586666
0.043822054 -0.12223384 -0.030624887 -0.10705752 0.0540729 0.079790056 -0.06002774 -0.044977944
-0.11452657 0.099764645 -0.067397855 0.06251414 0.04662295 -9.9548895e-05 -0.05329324 0.017480351
0.03981783 0.06310489 -0.0046010693 0.0130291935 -0.100235485 0.03577207 0.006415627 -0.008324867
-0.026631577 0.0069047133 -0.1125618 0.10185487 -0.0773807 -0.116788864 -0.06856919 0.119042635
0.103007615 -0.052619234 0.081362054 0.087505184 0.008295387 0.1130836 -0.08739038 -0.031831004
0.10564001 0.0034415112 0.11426871 -0.058115758 0.10546172 0.07588182 0.12851858 -0.022019412
-0.048049662 0.082691506 -0.05038137 0.031548124 0.0076644123 0.08932079 0.0026447105 0.021013744
-0.0363139 -0.052480176 -0.041357633 0.10495556 0.023156013 -0.110820666 -0.087882005 0.07003853
0.059829935 0.0052944724 -0.013277587 -0.10882318 -0.10639881 -0.004938145 0.11237396 -0.08021985
-0.054355234 -0.033697456 -0.1114456 0.07734981 -0.020568414 0.0068514044 -0.051047258 -0.05874063
0.04217085 0.039157446 0.06063991 -0.054867927 -0.097977914 -0.0885706 -0.0039812494 -0.10977814
0.08514038 0.028812889 -0.016996888 0.012722115 0.034354825 -0.061493658 0.059922922 0.07064507
-0.010366911 -0.0950098 0.040100794 -0.119443275 -0.006160691 -0.13095671 0.110055745 0.004710752
-0.06864065 -0.050352886 -0.0779911 0.00016166383 0.07608057 0.077514835 -0.033368696 -0.08973614
0.07637328 -0.037269834 -0.066172175 -0.11122752 0.018062636 0.09926558 0.004924848 -0.012293829
0.004266838 -0.050104428 -0.044790633 -0.07547249 0.077060446 -0.08042174 -0.0076575223 -0.024801768
0.013184713 0.07737745 -0.11924612 -0.08283694 0.09716223 0.11675709 0.005867172 -0.06434826
-0.094491675 -0.08738994 -0.06396198 0.031148164 0.0056531793 0.14659142 -0.044358186 -0.06828822
0.10344816 -0.108955115 -0.06302106 0.023358326 0.08476145 0.025058247 0.11770962 0.00033779733
0.086892575 0.05551535 -0.02867017 -0.046991687 -0.021333873 0.04784007 -0.027121577 0.09295062
-0.06253004 -0.10031355 0.083562896 0.053576846 -0.10059715 0.0892672 0.07868922 -0.07482842
0.0649415 -0.047917657 0.050975334 0.12633009 -0.06687385 0.099469036 0.015707027 -0.120292746
-0.08126335 -0.05453484 -0.041681606 0.027479533 0.024697065 0.07808476 -0.044691477 -0.09827224
0.09951877 -0.03249268 -0.06838023 0.026559323 -0.0127277 0.124121316 -0.0001872521 0.07674124
-0.1316768 -0.03920358 -0.08524866 -0.07976759 -0.027174031 0.032608893 -0.10475229 0.108089015
0.094949186 0.08500227 0.105483755 -0.11976518 -0.05540291 0.089086354 -0.07905819 0.06944996
0.08900681 -0.11137667 -0.051832672 -0.016074812 -0.045987982 0.088959865 -0.022556175 -0.05389254
0.099835575 0.093976535 0.051796444 -0.093108475 -0.08282297 0.09369231 0.054574996 -0.020127526
0.04947638 -0.06327149 0.05442057 0.040412992 0.074233174 -0.025383154 0.022639524 -0.03995029
0.036410812 -0.11785283 -0.09761751 0.041837674 0.02428675 -0.09859861 -0.08248921 0.08308437
0.08278045 0.07475876 0.06614526 -0.04371541 0.022982987 0.045872916 0.12190986 0.038389098

fc3.bias f4 [32]
00000000: a33c d3bd 7e83 253e 2f10 033c 4f8d ecbd
00000010: 6f7c 89bd c386 093e c751 bb3d 4182 1abe
00000020: 26fb edbc 107f 253d 532d 9cbd c235 c6bd
00000030: 074c 86bc 7946 0f3e 23b1 543e 2b68 013c
00000040: 5470 9dbd a6f1 8fbd 2a12 183d c344 833d
00000050: 96d8 86bd bef2 053b c1a7 163e 4393 453e
00000060: 6cef adbd 98f2 c0bd 546c c03c 7615 1cbe
00000070: 0341 033d 64ce bdbd d1ed ecbd 8223 f7bd
-0.103143 0.16163442 0.007999464 -0.1155039 -0.06713187 0.13430314 0.09146457 -0.1508875
-0.029050421 0.04040438 -0.076258324 -0.09678222 -0.016393675 0.13991727 0.20770697 0.007898371
-0.076874405 -0.07028513 0.037126698 0.064096 -0.06584279 0.0020438875 0.1471243 0.19294457
-0.08492932 -0.09421271 0.023489155 -0.15242562 0.032044422 -0.092678815 -0.115687974 -0.120673195

fc4.weight f4 [1, 32]
00000000: 3d5f f1bd 37f6 043e 6d03 8ebd 698d 6c3c
00000010: e97d 713d 48e4 5e3d f147 e33d 5454 713d
00000020: 7660 06be 9fe5 6d3d f2da 4a3d 2f97 52bd
00000030: 437f 743d 6238 e43d 3fea 8b3d fe92 9fbb
00000040: a6d8 02be 623e df3d f64d 71bd eed0 933d
00000050: 474b a23c a4ce 87bd 17a3 c63d 1eeb 1e3e
00000060: e4e9 013d c7a9 b23d 4b11 65bd 0eb9 15be
00000070: 8c72 bbbd 5fc3 11be bc5b c03d 9133 e7b9
-0.117857434 0.12984549 -0.06934247 0.014438012 0.058957968 0.054416925 0.11097706 0.058918312
-0.13122734 0.058080312 0.04952521 -0.05141371 0.05969168 0.11143567 0.06831788 -0.0048698178
-0.12777957 0.109005705 -0.05891224 0.072175846 0.019811286 -0.066312104 0.09699076 0.15519378
0.031717196 0.08723789 -0.055924695 -0.14621374 -0.091527075 -0.14234684 0.09392497 -0.00044098173
